DQN_SEED_1.pth (torch, 20847 bytes, 6 tensors)

Linear1.weight f4 [64, 4]
00000000: ee44 c23d 2da2 00bc a1db 1abf b770 143e
00000010: 8b8b b1be 6072 973e a0a4 d03d 3ef9 2d3e
00000020: 438e 623e 0eaa 433d f578 77bf 2e77 c2bd
00000030: ef2e aa3e 88a4 f1bd e854 3ebf 7568 8ebe
00000040: b1c4 e73d efca afbc 6b5e 9c3e 2f2e 4c3d
00000050: 80c9 c7bc 1acb 75be b407 5abf f001 73be
00000060: 5014 bfbd 117c 5fbd a3af a93f 994f 3e3e
00000070: 0cc7 0abe aa1a a23e 04a1 0d3f 25d3 d53e
00000080: 6dc8 133f 65f1 49be 0aba 43bf 6e57 9ebe
00000090: 232f f13e 60c8 863e 9a7a de3e 9eb4 463e
000000a0: bdb9 9c3e 6624 9dbe a324 813f ec3f 35be
000000b0: 7774 d3be a898 a13e 9220 343e a33d 983e
000000c0: 7512 063b 72ad 02bd 4db4 d5bf b5d3 5fbe
000000d0: 162c d03c d8d3 6ebc 135e d63f 3ffe 243e
000000e0: b428 98bd c061 debd fe99 8e3f db63 08bc
000000f0: d55b 03be bf29 523e 4c04 df3e 11fa b13d
00000100: aa8e 66be 3884 a33e f0a6 3abf 3fb3 453e
00000110: 3e6d 753d de01 a1bd 88da 1e3f 4fbc 89be
00000120: a9ea c2bc fdc8 8f3c d1fa c53f a9c0 113e
00000130: 5ae4 0e3e 211d 083f d09b 35bd f3c1 ab3e
00000140: 28a9 56be f285 35be bb80 b3be 8a50 c9be
00000150: 5d4c 03be c525 f53d a911 23bf a2c7 a73e
00000160: f3f4 bf3c f6df 9c3e 3daf 7d3f 2e57 6d3e
00000170: bdd3 2bbe c5e0 4b3d 6e4e b2bf 303c 17be
00000180: dc60 f23c 01bd 823b 39c6 eabf a97d 17be
00000190: f4ff 513f ba66 f7ba 1965 ea3e 639b e6bc
000001a0: 594e c6bd 34fc afbe 6c94 9c3f 6327 d5bd
000001b0: 3f37 603e 632b 053e 5615 873f fefe 1d3e
000001c0: 3f4b 343e cb20 91be 84d0 353f a857 b33d
000001d0: fc67 9f3e 7eb4 ab3e 2c29 4dbf 2203 223e
000001e0: cfa7 cc39 a7eb 54bd 9db5 babf 942e 02bf
000001f0: ef59 e83e c3b9 dabd ebd1 9cbf 571f 70be
00000200: 3d1d ccbd 2f57 de3e ce1c 803d 57b1 9c3e
00000210: f502 6d3d 30d0 983e 5cef 263f 4553 8e3e
00000220: 4cb9 1b3d 2588 8b3d 5db8 3fbf e070 9cbd
00000230: 9068 fabe 1f66 7dbe f4c2 4ebf dd6f 22be
00000240: fc5c 983d 7bf4 65bd 7eda 9e3e fae3 a2bd
00000250: 087f 02bd 5f6e 363e 1309 2dbf 686c 123e
00000260: dde6 0ebd f612 d1be a4c4 64bf f2db b9be
00000270: ed6e fabd 3c26 88bd e484 013f 8a25 cbbd
00000280: 23d3 0abf 5d5d 163e 2096 393f 6c0c 283e
00000290: 2bf7 c2be 6ff3 73bd f5f8 a23e 2a4c 75be
000002a0: 9e23 b6be 2273 bf3c 97f2 27bf 7a86 a23b
000002b0: 6708 72bd 3498 913d feb7 d83f dd34 903e
000002c0: c40c 9fbd 61c2 473e 4dc0 25bf 0a3a 133f
000002d0: 205f d93c 9be7 f3bd a536 c3bf c4fd 80be
000002e0: b7ef 7cbe 37d4 bb3e 3924 35bf 0239 eb3d
000002f0: 5a83 f63d 2e23 f4be 0404 afbd 5db3 5dbe
00000300: ecdb 2bbe 10c6 d63d 7665 2e3f e9be 05be
00000310: cb92 c13d 1d5a 003c 8461 db3e 0b5f 61be
00000320: 3f21 573d 548c a4be a565 c03e dcf2 61be
00000330: 2f99 323f cd88 513b a519 eabc 2267 2ebd
00000340: a834 2ebe d31d 2b3e 0f15 883f 82ac 30be
00000350: 5935 93bd 5b32 d83e 49d5 293f c5e5 763e
00000360: 5ea3 e43d 435d 2bbd 111f 03bf f275 c43e
00000370: 73d6 d6be d9d8 a03e 4d23 b9be a54f d23d
00000380: aabc 88be fbad 7abe 88d3 9abd 151b d63e
00000390: 07cf aa3c 4945 cf3e 49fa 7dbe 912f 5bbd
000003a0: 038c c13e 9792 a4bb 60d8 41bf 927e a53b
000003b0: 516b 26bf ee59 97bd 069c 233e ee74 823c
000003c0: ff95 acbe 341b 8f3d 6a30 833f 320b 663e
000003d0: d763 4dbd 556e efbc 958b c5bf 87e0 42be
000003e0: 42e4 53be 5b16 de3d 03ba a53f 2456 003d
000003f0: d1a4 aabd 4fcd 40bd 0d21 88bf f003 3abe
0.094858035 -0.007851166 -0.6049138 0.14496122 -0.34676775 0.2957945 0.1018765 0.1698961
0.22124581 0.0477696 -0.9666894 -0.09495388 0.33238932 -0.1179896 -0.74348307 -0.2781407
0.11316813 -0.021459071 0.30540785 0.04984873 -0.024388075 -0.24003258 -0.85168004 -0.23731208
-0.09330046 -0.05456168 1.3256725 0.18585052 -0.13552493 0.31660968 0.55323815 0.41762653
0.577277 -0.19720991 -0.7645575 -0.3092608 0.47106275 0.2632475 0.43452913 0.19404837
0.30610457 -0.30691832 1.0089306 -0.17700166 -0.41299793 0.3156178 0.1759055 0.29734525
0.0020457779 -0.03190369 -1.6695648 -0.21858104 0.025411647 -0.014576875 1.6747459 0.16112612
-0.074296385 -0.10858488 1.1140745 -0.008324589 -0.12828 0.20523737 0.43557966 0.086902745
-0.2251536 0.31936812 -0.72910976 0.19306658 0.059918635 -0.07861684 0.620522 -0.2690148
-0.023793535 0.017551893 1.5467168 0.1423365 0.13954297 0.5316945 -0.044338048 0.3354641
-0.20962965 -0.17726877 -0.3505915 -0.3931926 -0.12822099 0.119700946 -0.6369882 0.32769495
0.02343223 0.3063962 0.9909552 0.23177788 -0.1677999 0.049774904 -1.3930185 -0.14769053
0.029587202 0.003989816 -1.8341743 -0.1479403 0.8203118 -0.0018875219 0.45780256 -0.028150266
-0.096829124 -0.34372103 1.2232795 -0.10407903 0.21896075 0.13004832 1.0553386 0.15429303
0.17606829 -0.28345332 0.71021295 0.087569535 0.3113402 0.33536142 -0.8014095 0.15821508
0.0003903494 -0.051982548 -1.4586674 -0.5085232 0.45381114 -0.106799625 -1.2251562 -0.23449455
-0.09966514 0.4342589 0.06255494 0.3060405 0.05786415 0.29846334 0.65208983 0.27797905
0.03801851 0.06813077 -0.7489069 -0.07638717 -0.489079 -0.24745987 -0.80766225 -0.15862985
0.0743961 -0.056141358 0.3102607 -0.07953639 -0.031859428 0.1781554 -0.6759197 0.14299166
-0.034888137 -0.4083478 -0.8936255 -0.36300617 -0.12228189 -0.06647918 0.505934 -0.099192694
-0.5422842 0.14684053 0.724947 0.16410989 -0.380792 -0.05955833 0.31830564 -0.23954836
-0.3557405 0.02337033 -0.6560454 0.0049598785 -0.059090044 0.071091086 1.693115 0.2816533
-0.07766107 0.19507743 -0.6474655 0.57510436 0.026534617 -0.119094096 -1.5251051 -0.25193608
-0.24700819 0.36685345 -0.70758396 0.11485483 0.12036772 -0.4768309 -0.08545688 -0.21650453
-0.16783112 0.10486996 0.6812357 -0.13061108 0.09451827 0.007833985 0.42847836 -0.22008912
0.05252194 -0.32138312 0.3757755 -0.220653 0.6976499 0.0031972409 -0.028576681 -0.042578824
-0.17012274 0.16710596 1.0631427 -0.17253307 -0.0718791 0.42225918 0.6634107 0.24111088
0.11163972 -0.04183699 -0.5121928 0.38371235 -0.41960487 0.31415442 -0.36159745 0.10269097
-0.2670644 -0.24480431 -0.07559878 0.41817537 0.020850671 0.40482548 -0.24802507 -0.05351216
0.37802133 -0.0050223577 -0.7572079 0.0050504887 -0.650075 -0.073901996 0.15977487 0.015924897
-0.33708188 0.069876105 1.024915 0.22465208 -0.050144043 -0.029227415 -1.5433222 -0.19030963
-0.20692542 0.10844108 1.2947391 0.03133215 -0.083322175 -0.047070798 -1.0635086 -0.18165565

Linear1.bias f4 [64]
00000000: da34 f83d fae4 8bbe 23af 4fbe 6994 c8be
00000010: c4be 8a3e ae0d 063e d434 c8be 718d cb3e
00000020: 4cd1 703c 83e8 0bbf a68e c93d 660c aebe
00000030: fc41 ff3e a688 a4be 881a 05be a7fc 7abe
00000040: 4a1f 91bd 924d 133d 127b b2be 86b8 9dbe
00000050: 829a 19bf c24e 7abd c096 9dbe f182 ad3e
00000060: 5127 b8be fef7 6dbc c2ac 383e 8229 91be
00000070: 19a5 7fbe 9eeb 0abf 557e 24bf 27b4 e33e
00000080: 91e6 4eba 2851 8dbd 747d e93b 6ed2 a3be
00000090: 2213 f13d 77ed d93c 305c a7be 33e2 d0be
000000a0: c290 8abe 10ca 4c3d 0d24 bbbe 6441 c3be
000000b0: c529 60bd 4fe9 84be 666c 9bbd e49d 91be
000000c0: 9c82 8fbe 4f6d 51be 35a8 06bf 233f b3bd
000000d0: facb d4bd f9c9 ac3e 6e77 c6be cc56 2ebe
000000e0: a342 0bbf bb91 fcbe d958 873e 8f19 3dbf
000000f0: 68c2 d9be e656 e53e 5750 b53e b2c0 20bc
0.12119456 -0.27323133 -0.20281653 -0.39175728 0.27098668 0.13091156 -0.39102805 0.3975635
0.014698338 -0.5465166 0.09841661 -0.33993834 0.4985503 -0.32135504 -0.12998402 -0.24510442
-0.07086046 0.03596265 -0.3485952 -0.30804843 -0.60001385 -0.061110266 -0.30779076 0.33888963
-0.35967496 -0.014524458 0.18034652 -0.2835198 -0.24965324 -0.54265773 -0.6425527 0.44473383
-0.00078926334 -0.06900245 0.007125551 -0.31996483 0.117712274 0.02660249 -0.3268752 -0.40797576
-0.27063566 0.04999739 -0.36550942 -0.38135827 -0.054727335 -0.2595925 -0.07589035 -0.28440773
-0.28029335 -0.20451854 -0.52600414 -0.08752277 -0.10390468 0.33747843 -0.38762993 -0.17025298
-0.54398555 -0.49329934 0.26434973 -0.73867124 -0.42531133 0.4479286 0.35412857 -0.009811567

Linear2.weight f4 [64, 64]
00000000: 3997 97bd 3ef1 3cbd c5ca 8cbd 733c acbd
00000010: d988 433c 3bb0 9dbd dad0 8fbd 96e2 41bc
00000020: 153c fabd 0009 1cbd 1c8a a33c 7859 3f3d
00000030: 06e6 923d 575c adbd 41a2 06bc 51ba a4bd
00000040: 3370 d4bd c014 d9bd c5fc 453b 512f 0abd
00000050: c0ac 82bd e586 b4bd 15dc e0bd ae73 bc3d
00000060: 59f5 e9bc 0480 c6bd b1ba abbd 8177 edbd
00000070: 264a 0abe 53ab a5bd cd73 943d 66f7 17bc
00000080: 7521 9fbd f7ff 01be 7353 523d 4689 b83d
00000090: 157a 9b3d a509 bcbc b785 5c3d a08d 24bc
000000a0: aeaa 95bd e813 07be 9aed 9b3d 0c5f f6bc
000000b0: 372c a73b 8384 893b 17b1 06be 402f 7bbd
000000c0: 36f7 ea3c 245a 06bd a835 f7bd be43 ea3b
000000d0: a2b3 05bd 0992 a4bd 0efe ae3c 2998 8a3c
000000e0: c0d3 3cbd b7fc d53d 2b1c 8a3c 0d0f 283c
000000f0: 20a9 c4bc da34 0dbe 52af 783d 4f73 78bd
00000100: 5a8b 06be a451 7b3d 0682 27bd 3898 263d
00000110: 5c90 82bd 3eb1 a0bd 5ea5 afbc c601 213d
00000120: dedf 80bc 7aea ffbd 609b ac3d 2549 2f3c
00000130: dd15 c13d 893d 1abc 4554 ae3d c4cf e63c
00000140: cb60 ecbd a445 a73d 10c5 fcbd 757f 4abe
00000150: 40db 83bd c7f8 18be caa0 ddbd 6540 b1bd
00000160: 4c74 5b3d 0ebf 89bd 9120 c4bd 009b d13c
00000170: 15da cd3a 486b ffbd 8c74 b03d 03f6 573d
00000180: 1505 21be 2858 343d b8b0 7cbd 0d73 2d3b
00000190: 69c6 edbd 53c7 8e3d 7443 68bd 9622 d33d
000001a0: f8ef 32be 06df b93c d37e f4bd 2e67 33be
000001b0: ba19 90bc 3477 00be 583c 55bd 0f84 84bd
000001c0: 5fb2 4d3c 1b44 b33d f4b3 383d 3253 10be
000001d0: 6749 d23d 24cb 613b cc2e b63d 35ce a53b
000001e0: 89a3 cdbd 8af8 d93d 526a 0fbe f1fe 65bc
000001f0: 81cb bdbd 8d47 393d f01d 73bd b2f9 a63d
00000200: 5ac3 c2bd 90b0 17be 7889 2b3d c01f 8c3d
00000210: e8c2 b23d d4c3 39bd 11fa be3d 9908 2e3d
00000220: ae71 9ebd d476 c5bd 73be 0c3d 9841 8cbd
00000230: eb95 1d3d 206d 0abe 4735 513d a970 20bb
00000240: 1776 49bd c1b1 a43c 2242 b6bd 80da dfbc
00000250: 809e a03a 2a49 cdbd ccd3 02bd 911f 68bd
00000260: 2efa f33d 36a2 8b3d 1610 8d3d 2b0e 823d
00000270: 316d 16be e443 2b3d a8b7 3c3d b5cf efbd
00000280: d488 4f3d 0344 d8bd 28f4 943c e496 293d
00000290: 9b5a 903d 785f cdbd 0741 d1bd badd ec3d
000002a0: c186 cd3c a809 dd3c 484d 383d df81 92bd
000002b0: 16ff 993d 2e7f dfbd 40c0 213c c071 673d
000002c0: 20e9 ae3d 88ad 7fbd 1a07 adbd 03b1 873c
000002d0: 580c 0cbe 195f 11be ba39 e6bd 5c49 78bd
000002e0: 7875 c3bc fc99 97bd 348a acbd 46af e2bd
000002f0: 4859 9d3d 098f 66bd b9c2 eebd da23 c83c
00000300: a626 57be f9e3 f63d e983 bf3e dd8c bfbe
00000310: a1fb 32be 909d 54bf d66c f73e ed20 4e3a
00000320: a2be 89bf 11a4 85bf 30ca b53d 6c7a 1dbd
00000330: e412 1c3e 9e43 8a3e 168e 493d f6e6 2f3c
00000340: 1981 64bd c2e4 a2be c275 493f ae37 aabf
00000350: 2ab1 99be f8d2 8dbd f024 d5be 6b28 aabd
00000360: 732f c4bd cf00 1b3e 7630 81be d186 693e
00000370: 0880 8c3e 0a1c 8f3d 4705 79bd 5901 26be
00000380: df78 f6bc ab5c 433e 40db 44be 1a77 e23d
00000390: 28c1 f7bd e810 14be bebe 9bbe 4c2c 61bd
000003a0: dc6d be3e ea9e 16bf 65a0 b5bd 769c b03e
000003b0: 3c0b 03bd 7080 27be 4341 e63c 9a32 91be
000003c0: 94cd d33d 646b dabd e882 eebc 18ce 20be
000003d0: aebf 143e 1860 5a3c 867a 963e 0faf 483d
000003e0: 0c43 f83d 27e3 5f3e c2f1 23be 3eb8 c8be
000003f0: 0803 bb3e f4f9 953d 3086 34bd ea51 febb
-0.0740189 -0.046128504 -0.06874613 -0.08409967 0.0119344825 -0.07699629 -0.07022257 -0.011833807
-0.12218491 -0.03809452 0.019963317 0.046716183 0.0717278 -0.08464878 -0.008217395 -0.080433495
-0.10372963 -0.10599661 0.0030210477 -0.03373653 -0.06380606 -0.088147916 -0.10979477 0.09201752
-0.028559374 -0.09692386 -0.08385218 -0.11595059 -0.13504848 -0.08089318 0.0724865 -0.009275293
-0.07770053 -0.12695299 0.051349115 0.09010558 0.07591645 -0.022953818 0.053838458 -0.010043532
-0.07307945 -0.13191187 0.07613678 -0.030074619 0.0051017064 0.004196705 -0.13153492 -0.061324358
0.028682332 -0.03280081 -0.12070781 0.007149189 -0.032642014 -0.080356665 0.021361377 0.016918259
-0.046100378 0.10448592 0.016859135 0.010257495 -0.024006426 -0.13789693 0.060714073 -0.06065684
-0.13139096 0.061357155 -0.040895484 0.04067251 -0.063751906 -0.07846306 -0.021441158 0.039308332
-0.015731748 -0.12495895 0.08428073 0.010698591 0.09427998 -0.009414085 0.08512167 0.028175242
-0.11541899 0.0816758 -0.12342274 -0.19775183 -0.06438303 -0.14938651 -0.10821684 -0.086548604
0.053577706 -0.06725894 -0.09576524 0.025586605 0.0015705252 -0.12471634 0.086159796 0.05272485
-0.15724595 0.044029385 -0.06169197 0.002646628 -0.11610109 0.06971612 -0.056704953 0.10309331
-0.17474353 0.022689354 -0.11938252 -0.17519829 -0.017590392 -0.12545472 -0.0520595 -0.06470501
0.012554734 0.087532245 0.04509349 -0.14094236 0.10267907 0.0034453357 0.088956445 0.005059982
-0.100409575 0.10643108 -0.14005402 -0.014037834 -0.09267331 0.04523425 -0.059354722 0.08153094
-0.095099166 -0.14813447 0.041879147 0.06841993 0.08728582 -0.045352772 0.0932504 0.042488668
-0.077365264 -0.09641805 0.034361314 -0.068484485 0.03847305 -0.1351819 0.0510762 -0.0024481213
-0.049184885 0.02010429 -0.088993326 -0.027325869 0.0012254268 -0.100237206 -0.031940266 -0.05667073
0.11912952 0.06818049 0.06887834 0.063503586 -0.1469009 0.041812792 0.046073586 -0.11709539
0.0506676 -0.10559847 0.018182829 0.041403666 0.070485316 -0.10027975 -0.10217481 0.115657285
0.02508867 0.026982144 0.044995576 -0.07153677 0.07519357 -0.109129295 0.009872496 0.056504965
0.08540559 -0.06242135 -0.0844862 0.016563898 -0.13676584 -0.14196433 -0.11241479 -0.060616836
-0.023859724 -0.07402417 -0.08424798 -0.11068587 0.07683045 -0.056288753 -0.11658234 0.024431158
-0.21010837 0.12055201 0.37405327 -0.37412158 -0.17478801 -0.8305292 0.48325223 0.00078631827
-1.0761302 -1.0440694 0.08876455 -0.03844683 0.15241581 0.27004713 0.04920777 0.010736218
-0.05578718 -0.31815153 0.7869531 -1.3298242 -0.30017978 -0.06925005 -0.41629744 -0.0830849
-0.09579363 0.15137027 -0.25232285 0.22805335 0.2744143 0.0698777 -0.06079605 -0.16211452
-0.030086933 0.19078319 -0.19224262 0.11057873 -0.120973885 -0.14459574 -0.30418962 -0.054973885
0.3719319 -0.58836234 -0.088684835 0.3449437 -0.031993136 -0.16357589 0.028107291 -0.28358918
0.10341945 -0.106650144 -0.029115155 -0.15703619 0.14526245 0.013328575 0.29390353 0.048995074
0.12122163 0.21863995 -0.16010192 -0.39203066 0.3652575 0.073230654 -0.044073284 -0.0077612298

Linear2.bias f4 [64]
00000000: d74f 8abd f11c 9dbd d3c0 d7bd c715 b4bd
00000010: 69cb c1bd 6cce 89bd e28e 14bd 476d 9ebd
00000020: d476 933e b914 333c 859a 11be f8ea 99bd
00000030: b292 44bd 3839 afbc 3ca6 903d 4e56 09be
00000040: 74ae debd 8157 043d 7b61 be3e 138d 86bb
00000050: 88f7 a3bd a6c7 d6bc 0afa febc 8748 023e
00000060: 6e36 0dbe a656 59bd 809a d03c fea0 e33b
00000070: 7b31 03be b7c4 7c3d 2515 543e a3a0 6cbc
00000080: 4380 b4bd 5307 1ebe 6995 a03c a9c5 b3bc
00000090: cac9 293d 44ee 623e 657c b1bc c0ae 263d
000000a0: 4392 49be 4ed8 febd 8a6c cbbd bd09 cd3d
000000b0: e657 b83d 4aae 81bb 529b 17be e47c c6bd
000000c0: b530 06be 2790 1bbc dafa 363c ec35 1a3e
000000d0: 4441 3abe 2809 673d c459 113d 59ca 13be
000000e0: 2035 66be d213 1ebd 7594 1dbe c030 f13b
000000f0: 01c2 74bc c1ba f2bd 0f1c 5e3d 3b1c 53be
-0.067535095 -0.07671536 -0.10534825 -0.08793216 -0.094626255 -0.06728825 -0.036269076 -0.07735687
0.28801596 0.010930234 -0.14219101 -0.0751552 -0.047991462 -0.021389589 0.07062957 -0.13411829
-0.10873118 0.032310013 0.37183747 -0.004106173 -0.08006197 -0.026218247 -0.031125087 0.1272298
-0.13790295 -0.05306115 0.025464296 0.006946682 -0.12811844 0.06171104 0.20711191 -0.014442596
-0.088135265 -0.15432481 0.019602494 -0.021944838 0.041452207 0.22161204 -0.021665761 0.040694
-0.196847 -0.124436006 -0.099328116 0.10011623 0.0900114 -0.0039575445 -0.14805344 -0.0969179
-0.13104518 -0.009494818 0.011168206 0.15059632 -0.1818896 0.056405216 0.035485998 -0.14432658
-0.22481203 -0.03859312 -0.15388663 0.007360548 -0.014938832 -0.11852027 0.054225978 -0.20616238

Linear3.weight f4 [2, 64]
00000000: 5e03 51bd ec4a bc3b 24cd 65bd 01ec 0dbc
00000010: 9471 873c 31da 7c3c 4912 60bc bce8 fabb
00000020: f759 6d3e b302 253d 10bc 7e3d 42ba e13c
00000030: 1be2 32bd f874 07be f297 b0bc 5388 08bf
00000040: 8490 c2bd ab30 15be b267 173e cc86 5bbe
00000050: 6afc 443f 569d 37bd 3b8a c83b 21b9 e03d
00000060: c635 563d 9982 473c 9220 1d3e cdce 11bd
00000070: 9cac f93d 4815 c5be 260b ba3d d2a7 a53b
00000080: 07c1 1fbc a60e 1bbe 7410 7cbd 8990 17bf
00000090: 5e15 f3be ad56 a53d ccbd f9bc 82c9 2a3d
000000a0: 1449 31be c8d2 dcbd d520 c5bc 9277 213e
000000b0: 8df2 09bf e1f6 44bc d027 a2bd 5a40 efbc
000000c0: 0de5 9cbb 4c5f 863d 42a4 7b3d ebab 453e
000000d0: b552 a63c 951d 05bf 8ca1 17bd c2c8 563d
000000e0: eaf2 0ebe 2885 e43c 027c 31be fc4a d6bd
000000f0: db17 593d 309e 923d a64b 8f3c ab7b 313d
00000100: 4eab abbd f158 aebc f236 bcbd 9ed9 433e
00000110: d142 44bb 74e3 3b3c 7f14 ce3d 959c 04bf
00000120: a94c b73e b36b 743c ba7b c33d 3318 293c
00000130: ce1f a73d fa39 dabd e1ba b33c ead4 0dbf
00000140: c2dd d83b e06b acbc 2f18 373e b184 883c
00000150: dce3 31bf 7b10 043d b264 b9bd 7379 103e
00000160: 60ac dfbc caed 19bd 8ed2 933d ab5b 2fbd
00000170: 935a f13d 6d0f 79bf a7bf 533d 5517 8e3b
00000180: 14b1 043c e013 a63d bcb1 f1bc bdf1 3abd
00000190: 78d7 4e3e fd61 4b3e 8c22 343c dbe1 2e3d
000001a0: b915 15be 40ed fa3d 963b 6bbd 9090 32bd
000001b0: 0156 b33d 6a51 253d 5168 b83d bb74 bd3c
000001c0: adcb 2e3b 8a0a b3bd 7ec7 dbbe 564c 7e3e
000001d0: 1a51 4cbd 1697 07bf a0a4 ab3c 1c10 25bd
000001e0: bef9 0dbe 0d14 0abd 9fb9 e1bd 791a 1dbd
000001f0: 3078 babc 69eb bebc 4593 403c f53f 203e
-0.0510286 0.005746236 -0.05610384 -0.008662225 0.01653365 0.01543288 -0.0136762345 -0.0076571386
0.2317885 0.040285777 0.06219107 0.027554635 -0.043672662 -0.13228214 -0.021556828 -0.53333014
-0.095002204 -0.14569347 0.1478565 -0.2143814 0.76947653 -0.04482778 0.006119994 0.109728105
0.052297376 0.012177133 0.15344456 -0.03559761 0.12191126 -0.384928 0.09084158 0.005055406
-0.009750611 -0.15142307 -0.06153913 -0.5920492 -0.4747724 0.08073173 -0.03048601 0.04169608
-0.17313033 -0.10782391 -0.024063507 0.15768269 -0.5388573 -0.012021751 -0.0791775 -0.02920549
-0.004788047 0.06561145 0.061435945 0.19303863 0.02030311 -0.51998264 -0.037019297 0.05243755
-0.13959852 0.027895525 -0.17332461 -0.10463521 0.053001266 0.07159078 0.017492127 0.04333083
-0.08382283 -0.021282645 -0.091901675 0.19125983 -0.0029947052 0.011467803 0.10062503 -0.51801425
0.35800675 0.014918256 0.09545083 0.010320711 0.08160363 -0.106555894 0.021939697 -0.55403006
0.0066182325 -0.021047533 0.17880319 0.016664835 -0.6948831 0.03224228 -0.09052409 0.14108829
-0.027303874 -0.03758029 0.072178945 -0.04281203 0.11784854 -0.9728916 0.051696446 0.0043362775
0.008098859 0.081092596 -0.029503696 -0.045640696 0.20199382 0.19861598 0.010994565 0.04269586
-0.14559068 0.12252283 -0.057429872 -0.043594897 0.08756638 0.040360846 0.09004272 0.02312695
0.0026671693 -0.087422445 -0.42925638 0.24833807 -0.049882032 -0.52964914 0.020952523 -0.040298566
-0.138648 -0.03371053 -0.110217325 -0.038355324 -0.022762388 -0.023305612 0.011753862 0.15649398

Linear3.bias f4 [2]
00000000: 62e7 af3e 0442 913e
0.3435622 0.28370678
