DRQN_POMDP_Random_SEED_1.pth (torch, 136978 bytes, 8 tensors)

Linear1.weight f4 [64, 2]
0	0x3ebaa15c	0.36451232
1	0xbee4baf4	-0.44673884
2	0xbe3502dc	-0.17676872
3	0x3edb41a1	0.42823508
4	0xbf2a6b14	-0.6656964
5	0x3ed91eef	0.42406413
6	0xbe26d66f	-0.16292737
7	0x3ee74cf8	0.4517591
8	0x3dba620e	0.09100734
9	0xbc1a947b	-0.009434815
10	0x3e389bf7	0.18028246
11	0x3df2d084	0.118561774
12	0x3e807cb7	0.2509515
13	0xbe78e8b7	-0.24307524
14	0xbd5b47cf	-0.05353528
15	0x3c908b5d	0.017644579
16	0x3dcc2baf	0.099692695
17	0xbd890eb0	-0.066922545
18	0x3f1bfbcc	0.60931087
19	0x3e1a6ee8	0.1508137
20	0xbe86d351	-0.26333097
21	0xbedaa849	-0.42706516
22	0xbdf2bbbf	-0.11852216
23	0xbe9c2979	-0.3050039
24	0xbe68078e	-0.22659132
25	0x3d0aae10	0.033857405
26	0x3ed7d240	0.42152596
27	0x3ec4c803	0.38433847
28	0xbf30f4a3	-0.69123286
29	0x3ee06f68	0.43834996
30	0x3e35c910	0.1775248
31	0x3f49ea12	0.7887279
32	0x3ee7d3af	0.4527869
33	0xbf2960ce	-0.6616334
34	0xbf2c1d5d	-0.67232305
35	0xbeae9f75	-0.3410603
36	0x3f218767	0.6309723
37	0xbd914cff	-0.07094764
38	0x3e8db081	0.27673724
39	0xbefd96b5	-0.49529043
40	0x3f2e898c	0.6817863
41	0xbe94c6c6	-0.29057902
42	0x3f0dbaa3	0.5536291
43	0x3c6db89a	0.0145093445
44	0xbebeba71	-0.37251619
45	0x3eba17df	0.36346337
46	0xbec9e0fe	-0.39429468
47	0x3eabeac1	0.3357754
48	0xbe511522	-0.20418218
49	0xbd9ec47f	-0.077523224
50	0xbf439ced	-0.76411325
51	0xbe9d77b2	-0.30755383
52	0x3ec4745a	0.3837002
53	0xbe3001ba	-0.17188159
54	0x3f344de1	0.70431334
55	0x3f111a5e	0.5668086
56	0xbd079d9e	-0.0331093
57	0xbef1a79a	-0.47198182
58	0x3edc77c5	0.43060127
59	0x3e60b8f8	0.2194556
60	0xbee20f58	-0.4415233
61	0x3ee487de	0.44634908
62	0x3edbcb59	0.4292858
63	0x3f208b8e	0.62712944
64	0xbecaf1bb	-0.3963755
65	0xbdee5ffa	-0.116394
66	0xbd12b7d8	-0.03581986
67	0x3e5348ba	0.20633212
68	0xbf11873a	-0.56846964
69	0xbee5d9a1	-0.448926
70	0x3ec74f5f	0.38927743
71	0xbe6d63d6	-0.23182616
72	0x3eb0d8a5	0.34540287
73	0x3d251e50	0.04031211
74	0x3e56b0c2	0.20965865
75	0x3e5c6d6b	0.21526115
76	0x3e83a316	0.25710362
77	0x3eb37769	0.3505204
78	0xbf3d54d1	-0.73957545
79	0x3ef0ec3c	0.47055233
80	0xbefe8ecb	-0.49718317
81	0xbf0894a9	-0.5335184
82	0x3d302323	0.04300226
83	0xbdf6c6a4	-0.120496064
84	0x3ed4a24e	0.4153008
85	0xbed1ab64	-0.40951073
86	0xbf356432	-0.7085601
87	0x3f2e5030	0.68091106
88	0xbda0bcd5	-0.07848517
89	0x3ee63e78	0.44969535
90	0x3e9a1885	0.30096832
91	0xbf3a102b	-0.7268092
92	0x3e2a8dc2	0.16655639
93	0xbb9f1c7e	-0.0048556915
94	0xbef43c76	-0.47702378
95	0xbeccc206	-0.39991778
96	0x3e4e5bbf	0.20152186
97	0x3e826ed9	0.25475195
98	0xbe594ff7	-0.2122191
99	0xbeb9485c	-0.36188018
100	0x3f25cae0	0.6476269
101	0xbe05f83f	-0.1308298
102	0x3ecd0c6c	0.4004854
103	0x3ecae064	0.3962432
104	0xbeea063d	-0.45707884
105	0xbf19f1b6	-0.60134447
106	0x3f47dbc7	0.7806973
107	0xbea2e736	-0.31817025
108	0x3ef8298e	0.48469204
109	0x3e160d33	0.14653473
110	0x3e68e136	0.22742161
111	0x3f0736c5	0.52817947
112	0x3f2ba52b	0.670489
113	0xbef03df3	-0.46922264
114	0x3d7bbe1b	0.061460596
115	0x3f1aba47	0.60440487
116	0x3f032302	0.5122529
117	0x3ee0e990	0.43928194
118	0xbf0301d2	-0.5117465
119	0xbf025a50	-0.50919056
120	0xbef1d807	-0.47235128
121	0x3f04c498	0.5186248
122	0x3f346a66	0.7047485
123	0xbee4b0e5	-0.4466621
124	0x3eaefdb8	0.34177947
125	0xbf08a983	-0.53383654
126	0xbf2a327d	-0.6648329
127	0xbe19e529	-0.15028824

Linear1.bias f4 [64]
0	0x3ecaa18a	0.3957637
1	0x3f21c006	0.6318363
2	0xbee0d70e	-0.43914074
3	0x3e1492d7	0.1450914
4	0x3f1b2cd2	0.60615265
5	0x3eeda2b5	0.46413198
6	0x3edf9f5d	0.43676272
7	0x3ef42cc1	0.47690395
8	0x3eda9ef0	0.42699385
9	0x3e2556c5	0.16146381
10	0xbef791bf	-0.48353383
11	0xbf180335	-0.59379894
12	0xbea5e4c1	-0.32401088
13	0xbda8a1b5	-0.08233968
14	0xbedde994	-0.43342268
15	0x3e82ea05	0.25569168
16	0x3e64f4d0	0.22359014
17	0xbe23f4e8	-0.16011393
18	0x3e891b25	0.26778522
19	0x3e544878	0.2073077
20	0x3eda8738	0.4268129
21	0x3ef342b8	0.4751184
22	0xbe7535f5	-0.23946364
23	0x3f3071d6	0.689237
24	0xbda76afb	-0.08174702
25	0xba270152	-0.0006370741
26	0xbf2adc4d	-0.667424
27	0xbee90392	-0.45510536
28	0xbed38116	-0.41309422
29	0xbe9ada2c	-0.30244577
30	0x3efbd351	0.4918466
31	0xbe6c9d60	-0.23106909
32	0xbf0745b8	-0.5284076
33	0x3e8bd69e	0.27312177
34	0x3e61a440	0.22035313
35	0x3ee93db8	0.455549
36	0xbebb584d	-0.36590806
37	0x3e15851e	0.14601561
38	0xbe83cce7	-0.25742266
39	0xbdf726a5	-0.12067918
40	0xbf1041f4	-0.56350636
41	0xbea500ca	-0.32227165
42	0xbe5dc118	-0.2165569
43	0x3e8e6250	0.2780938
44	0x3ded0669	0.11573488
45	0x3e186d0f	0.14885353
46	0x3f29c755	0.6631978
47	0x3f2ffdfd	0.6874693
48	0x3ee4a693	0.44658336
49	0xbc0304ca	-0.007996747
50	0xbefa748b	-0.4891704
51	0x3f0e1494	0.5550015
52	0xbe3510b4	-0.17682153
53	0xbd16de8e	-0.03683334
54	0xbf1bf2ae	-0.60917175
55	0xbe0f06a7	-0.13967381
56	0xbee982b2	-0.45607525
57	0x3f24aa46	0.64322317
58	0xbf1c7eba	-0.6113087
59	0xbf0d19f8	-0.5511775
60	0x3d7d0383	0.061770927
61	0xbec3c289	-0.38234356
62	0x3e6f5738	0.23373115
63	0xbe8b5ba3	-0.2721835

lstm.weight_ih_l0 f4 [256, 64]
0	0xbd7af1c5	-0.061265726
1	0x3b870d3b	0.0041214502
2	0x3db95160	0.09048724
3	0xbdbed4c3	-0.09317925
4	0x3d655b94	0.05599554
5	0x3d9ea0a0	0.077454805
6	0x3df4eb0c	0.11958894
7	0xbdb81ef4	-0.08990279
8	0x3ce2d57d	0.02768969
9	0xbdc781f3	-0.09741583
10	0x3dda8f60	0.10671878
11	0xbd469ba8	-0.04848829
12	0x3d9a33ca	0.07529409
13	0x3b73e340	0.003721431
14	0xbc1f80f0	-0.009735331
15	0xbc32f013	-0.010921496
16	0x3c9eed0e	0.019400146
17	0x3d715ad4	0.05892451
18	0x3c87d1b4	0.016579486
19	0x3d14656d	0.03622954
20	0xbdecacd5	-0.115564026
21	0x3db375d1	0.08762706
22	0x3ddf327a	0.108982995
23	0x3dce2e74	0.10067454
24	0x3dbd3db2	0.09240283
25	0xbe2a90c7	-0.1665679
26	0xbd3dcc64	-0.0463375
27	0x3de1b8c0	0.110215664
28	0xbdc2fc0e	-0.09520732
29	0x3de83fa6	0.11340265
30	0xbdcf4a4a	-0.101215914
31	0xbdb4541e	-0.088051066
32	0x3d7a4e38	0.06110975
33	0xbdbde613	-0.09272399
34	0xbcea1fd4	-0.02857963
35	0x3db41ac5	0.087941684
36	0x3dcac656	0.09901111
37	0x3dea40e8	0.11438161
38	0xbccfc998	-0.025364682
39	0xbe3adbcc	-0.18247908
40	0x3dfc0f76	0.123076364
41	0xbcda2388	-0.02662827
42	0xbd52a7a0	-0.05142939
43	0x3cd66a75	0.02617381
44	0xbdbefeee	-0.09325968
45	0x3da480b8	0.08032364
46	0x3d9aaccd	0.075524904
47	0xbdcf35a2	-0.101176515
48	0xbdd88803	-0.10572817
49	0x3c318725	0.010835444
50	0x3d570d94	0.052503183
51	0xbbeb0cc9	-0.007173155
52	0xbd81cfd6	-0.0633847
53	0x3cafba8f	0.021451263
54	0xbdf09f66	-0.11749153
55	0xbdb4ee4a	-0.088345125
56	0xbdaa6a9e	-0.08321117
57	0x3dcc1e66	0.099667355
58	0x3de1aa5e	0.11018823
59	0xbd2de8cc	-0.04245834
60	0x3d9f5a92	0.07780947
61	0x3d645738	0.05574724
62	0x3c567f9a	0.013091946
63	0xbd803152	-0.06259407
64	0x3ddaf3e8	0.10691053
65	0x3d9200e4	0.07129076
66	0xbbed62c0	-0.007244438
67	0xbdb2515a	-0.08706923
68	0x3e00d204	0.12580115
69	0x3df10279	0.1176805
70	0xbd3cca30	-0.04609126
71	0x3e06a24d	0.1314785
72	0x3d32d738	0.04366228
73	0xbd978e13	-0.074001454
74	0x3d8c233a	0.068426564
75	0xbdbf1f82	-0.093321815
76	0x3dec8696	0.11549108
77	0xbda493ba	-0.08035989
78	0x3d10ced4	0.035353497
79	0xbc9cf132	-0.01915798
80	0x3dcbe6a8	0.099561036
81	0x3dd45504	0.10367778
82	0xbcbdafab	-0.023155054
83	0xba21316e	-0.0006149028
84	0xbd9b9e91	-0.075986035
85	0x3c31bc7b	0.01084816
86	0xbd728b80	-0.05921507
87	0x3b057b79	0.0020367785
88	0xbcd1eb20	-0.025624812
89	0xbd3acece	-0.04560738
90	0x3ddd75a4	0.10813454
91	0x3d17147c	0.03688477
92	0xbd24ef90	-0.040267527
93	0xbd7b3c88	-0.061337024
94	0xbe01d488	-0.1267873
95	0x3dd76910	0.10518086
96	0xbcc1fc98	-0.023680016
97	0x3ca83303	0.020532137
98	0x3d29732d	0.041369606
99	0xbd65de56	-0.05612024
100	0x3d902ca8	0.070397675
101	0x3d7984c3	0.060917627
102	0x3bce4640	0.0062949955
103	0x3d0a3d13	0.03374965
104	0xbd598d5c	-0.053113326
105	0x3ae1a000	0.0017213821
106	0xbd924328	-0.07141715
107	0xbe0b2601	-0.13588716
108	0xbdd5e2c1	-0.104436405
109	0x3d3938a7	0.045220044
110	0x3d190e10	0.037366927
111	0xbc82d168	-0.015968993
112	0xbc5e28e7	-0.013559557
113	0x3dac2440	0.08405352
114	0xbde9f2c4	-0.11423257
115	0x3ddf6c08	0.10909277
116	0x3cc35c70	0.023847789
117	0x3ed84d4f	0.42246482
118	0xbca50768	-0.020145133
119	0xbd00ac14	-0.031414106
120	0xbdf0aacc	-0.11751327
121	0xbd6b7fdb	-0.05749498
122	0x3da7e0ac	0.0819715
123	0xbdfabcf2	-0.1224307
124	0xbc0a530f	-0.008442654
125	0x3d9bf86a	0.076157406
126	0x3dfcb6df	0.123395674
127	0x3d3d0db8	0.04615566
128	0x3cd55c50	0.026044995
129	0xbd21793e	-0.039422266
130	0xbcc276f0	-0.023738354
131	0xbe50646a	-0.20350805
132	0x3d6b9fa1	0.05752528
133	0xbd2fc28d	-0.042910147
134	0xbd23e267	-0.040010836
135	0x3cdda0c3	0.027054196
136	0xbda87343	-0.082251094
137	0xbc0f0b8a	-0.0087307785
138	0x3d82d1ca	0.0638767
139	0x3d3f5978	0.046716183
140	0x3dd9f14c	0.10641727
141	0xbdae9aa2	-0.085255876
142	0x3a8e7380	0.0010868162
143	0xbe226cf4	-0.15861875
144	0x3d204475	0.039127786
145	0xbd900382	-0.07031919
146	0x3d9a7f86	0.075438544
147	0x3dc46276	0.095890924
148	0xbc8329ab	-0.01601108
149	0xbd915368	-0.070959866
150	0xbdd41a6c	-0.10356602
151	0x3dc33b39	0.0953278
152	0xbcae8940	-0.02130568
153	0xbdf20a8f	-0.1181842
154	0xbd3c4588	-0.045964748
155	0xbd800ade	-0.06252073
156	0xbdea1d78	-0.11431402
157	0xbd964980	-0.07338238
158	0x3ca356fa	0.019938935
159	0x3ce06fa0	0.027396977
160	0xbd349cc8	-0.04409483
161	0xbd9a2b66	-0.07527809
162	0x3defb0fb	0.11703678
163	0x3df5de34	0.120052725
164	0x3df6a3a2	0.12042929
165	0x3c22ed27	0.009944237
166	0x3d775a58	0.060388893
167	0xbdacb019	-0.084320255
168	0xbd95aaae	-0.07307945
169	0xbdfacc6c	-0.12246022
170	0x3d9bed9a	0.07613678
171	0xbe36143c	-0.17781156
172	0xbe018edb	-0.12652151
173	0x3e073152	0.13202408
174	0xbdf4d630	-0.119549155
175	0xbd504c4d	-0.050854016
176	0x3ccf25ff	0.025286673
177	0x3dd45124	0.10367039
178	0xbdf735a8	-0.12070781
179	0x3cf206ea	0.029544313
180	0x3b9d16c0	0.004793972
181	0x3e5bb6ac	0.21456403
182	0x3d4ed558	0.05049643
183	0x3cd82fb8	0.026389942
184	0xbd3cd3c0	-0.046100378
185	0x3d9b8561	0.075937994
186	0x3d806e12	0.06270994
187	0x3c809380	0.015695333
188	0xbe824d43	-0.2544957
189	0xbdd8d79a	-0.10587998
190	0x3e363a72	0.17795733
191	0xbd041dd8	-0.032255024
192	0xbdbc2eeb	-0.091886364
193	0x3d74466d	0.059637476
194	0x3d35d65c	0.044393882
195	0xbb6feecd	-0.0036610842
196	0xbd2953b0	-0.041339576
197	0xbd6668f7	-0.056252446
198	0x3bf6da14	0.007533321
199	0x3da3443f	0.07972001
200	0x3aeb07a8	0.0017931359
201	0xbd99c844	-0.07508901
202	0x3dfe4eb0	0.12417352
203	0x3b2f3400	0.0026733875
204	0x3dca5f5c	0.098814696
205	0x3cf991b0	0.030464977
206	0x3de5779e	0.11204456
207	0x3d256bd7	0.040386047
208	0xbd88f71e	-0.06687759
209	0x3db3d41c	0.08780691
210	0xbc3d3f35	-0.011550714
211	0xbddb835b	-0.107184134
212	0xbd1b988a	-0.03798727
213	0xbe037a33	-0.12839584
214	0xbd84a258	-0.06476277
215	0xbdde999c	-0.108691424
216	0x3daf1774	0.08549395
217	0xbd7de8bc	-0.06198953
218	0xbcb0ec70	-0.021597117
219	0x3d755bb8	0.059901923
220	0x3d505e74	0.050871328
221	0xbda8f3a8	-0.08249599
222	0x3cb9d64d	0.022685194
223	0x3d598258	0.05310282
224	0xbdcb8c4a	-0.099388674
225	0x3db4e1de	0.08832143
226	0xbdb370d1	-0.087617524
227	0xbd8078e7	-0.0627306
228	0xbdd2dd10	-0.102960706
229	0x3dbff89e	0.09373592
230	0x3cc2fcd0	0.023802191
231	0x3e0355a6	0.12825641
232	0x3c05bc70	0.008162603
233	0x3d8b25ae	0.06794296
234	0xbd237964	-0.03991069
235	0xbe0889a2	-0.13333753
236	0xbc8b9fa5	-0.017043898
237	0xbc357d71	-0.011077271
238	0xbcf624cf	-0.030046849
239	0xbd9db671	-0.077008136
240	0xbc7fa74b	-0.015603851
241	0x3d1f012d	0.03881948
242	0x3d38b3f4	0.04509349
243	0xbdf59920	-0.11992097
244	0x3d775b88	0.060390025
245	0x3db8618b	0.0900298
246	0x3db09156	0.08621471
247	0x3db4eb34	0.08833924
248	0xbdc99a90	-0.098439336
249	0x3dc9e85c	0.09858772
250	0xbdfbc36e	-0.12293135
251	0x3d932a68	0.07185823
252	0xbccb2de7	-0.024802161
253	0x3d72486c	0.059151098
254	0xbd98e01c	-0.074646205
255	0x3d99e802	0.07514955

lstm.weight_hh_l0 f4 [256, 64]
0	0x3cc60495	0.024172107
1	0xbdb84b24	-0.08998707
2	0x3d7825db	0.060582977
3	0x3d8ee7fc	0.06977841
4	0x3da5909f	0.08084225
5	0x3dd767f1	0.10517872
6	0x3db5e822	0.088821664
7	0x3d8f832d	0.07007442
8	0x3d29ccb7	0.041454997
9	0xbbc9115f	-0.006136104
10	0x3da712e7	0.08157902
11	0xbcd6c3db	-0.026216438
12	0xbd40520e	-0.046953253
13	0xbd6467d5	-0.055763084
14	0xbc2c38c5	-0.010511582
15	0xbdd10fae	-0.10208069
16	0xbdb735b1	-0.08945788
17	0x3e0ee753	0.1395543
18	0x3d7f869d	0.062384237
19	0x3dcbd69a	0.099530414
20	0x3cb598e7	0.022167636
21	0x3aba502b	0.0014214566
22	0x3d566ba1	0.052348737
23	0x3df9f6de	0.12205289
24	0x3d9b8c4a	0.075951174
25	0xbd452c7d	-0.04813813
26	0xbd0abb60	-0.0338701
27	0xbd561311	-0.052264277
28	0x3db77f10	0.08959782
29	0x3ccb4a1b	0.02481561
30	0x3c2d352a	0.010571757
31	0x3d84341e	0.06455253
32	0xbdf23019	-0.1182558
33	0xbd856542	-0.06513454
34	0xbd1e3cc1	-0.03863216
35	0xbe0dab34	-0.1383484
36	0xbdb462f6	-0.08807938
37	0xbda381db	-0.07983752
38	0x3cd5bdab	0.026091417
39	0x39ddce95	0.0004230632
40	0xbdda3b26	-0.10655813
41	0xbd9d67e6	-0.07685833
42	0x3d6dbbb4	0.058040336
43	0x3dc19fc8	0.09454304
44	0x3db7a16b	0.08966335
45	0xbd1fb3c3	-0.038989794
46	0x3de55c0b	0.111991964
47	0x3c168be4	0.009188626
48	0xbdd2b669	-0.10288698
49	0xbd47a617	-0.04874238
50	0xbd829fd4	-0.06378141
51	0x3dc46e53	0.09591355
52	0x3dd68158	0.10473889
53	0xbd22f1bb	-0.039781313
54	0x3be8f525	0.0071093016
55	0x3d0527a3	0.032508504
56	0x3dce91d0	0.10086405
57	0x3c9d6fcc	0.019218348
58	0x3d3d1dbe	0.046170942
59	0xbd8916fc	-0.06693837
60	0xbd8dfaeb	-0.069326244
61	0xbd830f91	-0.063994534
62	0x3db7c319	0.08972759
63	0xbd3b4deb	-0.045728605
64	0x3d887e4a	0.06664713
65	0xbe5b86a5	-0.21438082
66	0xbd9ce34f	-0.07660543
67	0x3d5753f5	0.052570302
68	0xbe0eef0e	-0.1395838
69	0xbd8eb07a	-0.06967254
70	0xbd777ec2	-0.06042362
71	0x3d1eba51	0.038751904
72	0xbe0d2d4f	-0.13786815
73	0xbdca984d	-0.0989233
74	0x3c0e4c99	0.0086852545
75	0x3e37c4c8	0.1794616
76	0xbdccc97d	-0.09999368
77	0x3dd579dd	0.10423634
78	0x3d3dfd4c	0.04638414
79	0xbd49d6fa	-0.049277283
80	0x3d288099	0.041138265
81	0x3e25f7f3	0.16207866
82	0xbe42d794	-0.19027549
83	0x3db5aebf	0.08871221
84	0x3ddbbc57	0.10729282
85	0xbd3962a4	-0.045260087
86	0xbe369a00	-0.17832184
87	0xbcd43d79	-0.025908219
88	0xbba389a1	-0.004990772
89	0x3df8f6de	0.12156461
90	0xbd3ea93e	-0.04654812
91	0xbe3537da	-0.17697087
92	0x3d098dc8	0.03358248
93	0x3e19438f	0.14967178
94	0xbded82fb	-0.11597248
95	0xbdbfd06e	-0.09365927
96	0xbde09b06	-0.109670684
97	0xbbdd466f	-0.006752781
98	0xbcc8b83d	-0.024501914
99	0x3d9f439d	0.07776568
100	0xbd5fc563	-0.054631602
101	0xbd205185	-0.039140243
102	0xbdbd7003	-0.0924988
103	0xbccc9f11	-0.024978193
104	0xbcb75d4b	-0.022383353
105	0x3e04bf08	0.12963498
106	0xbe0262f0	-0.12733054
107	0xbe02d800	-0.1277771
108	0xbbb03b9e	-0.0053782007
109	0x3d075525	0.033040185
110	0x3dc4c864	0.09608534
111	0x3d61a43c	0.055088267
112	0x3de00593	0.10938563
113	0xbde5de58	-0.11224049
114	0xbdf33e02	-0.118770614
115	0xbdb71420	-0.089393854
116	0x3dbbce0a	0.09170158
117	0x3e31117f	0.1729183
118	0x3cdb14f1	0.026743384
119	0xbdfd6b70	-0.12374008
120	0xbe21cceb	-0.15800826
121	0x3cf37575	0.029719094
122	0x3d89951c	0.067178935
123	0x3d44cece	0.048048787
124	0xbdece078	-0.115662515
125	0xbd5cfaaf	-0.053950008
126	0x3d983de6	0.07433681
127	0xbd7b63c9	-0.06137446
128	0x3dd1a9ee	0.1023749
129	0xbe13a5e9	-0.14418758
130	0xbdae7244	-0.08517888
131	0x398fab9a	0.0002740294
132	0xbe46041f	-0.1933751
133	0x3d45281c	0.048133954
134	0xbd72b52c	-0.05925481
135	0xbdc6c2f9	-0.09705157
136	0x3d1c9d3b	0.038235884
137	0xbe0a2e32	-0.13494185
138	0xbde044a9	-0.10950596
139	0x3b448ad8	0.0029989984
140	0x3da88b4a	0.08229692
141	0x3e0d893c	0.13821882
142	0x3e0fa34e	0.1402714
143	0xbd34473e	-0.044013254
144	0x3e4c7724	0.19967324
145	0x3c3c38d5	0.011488159
146	0xbe79eb6c	-0.24406213
147	0x3d805eae	0.06268059
148	0x3e6a5da7	0.22887288
149	0xbd4bd8e3	-0.049767386
150	0xbb458901	-0.0030141475
151	0x3cb109fc	0.021611206
152	0x3e62e506	0.22157678
153	0x3df8710b	0.12130936
154	0xbc8e4585	-0.017367134
155	0xbe2d5d7e	-0.16930196
156	0x3d862c97	0.065514736
157	0x3e2739a5	0.16330583
158	0xbdaa00df	-0.083009474
159	0x3e2f2b93	0.17106466
160	0x3c6664dd	0.014062134
161	0xbe38e8ea	-0.180576
162	0xbe42c466	-0.19020233
163	0x3d38a188	0.045075923
164	0x3dedbdae	0.11608444
165	0x3c9a587a	0.018841017
166	0xbdfa0c25	-0.12209348
167	0xbe282ca1	-0.16423275
168	0x3e06e59f	0.13173531
169	0x3c8f23a2	0.017473046
170	0xbe119624	-0.1421743
171	0xbd90b3fc	-0.07065579
172	0x3cd8d0ac	0.02646669
173	0x3d64aa69	0.05582658
174	0x3c0516df	0.008123129
175	0xbd9f8020	-0.0778811
176	0x3d9d447a	0.076790765
177	0x3b4fcfce	0.0031709555
178	0x3d4ae477	0.049534287
179	0xbd89383a	-0.067001775
180	0xbd007275	-0.031359155
181	0x3e3d28b6	0.18472561
182	0xbe470344	-0.1943484
183	0xbea66f2a	-0.32506686
184	0xbe05f9e8	-0.13083613
185	0x3de151cd	0.110019304
186	0x3dd82531	0.10553969
187	0xbd1f17f7	-0.038841214
188	0x3db504e5	0.08838824
189	0xbd9b2359	-0.075751014
190	0xbdadca35	-0.084858336
191	0xbdc4a820	-0.0960238
192	0xbd6bf2de	-0.057604663
193	0xbdeff47d	-0.11716554
194	0x3dd5c7df	0.10438513
195	0xbdd21230	-0.10257375
196	0xbd49c12b	-0.049256485
197	0xbd787d3b	-0.060666304
198	0x3dd03400	0.10166168
199	0x3db0393a	0.08604665
200	0xbd8eb3c8	-0.06967884
201	0xbd04c9a2	-0.032418855
202	0xbbba09d7	-0.0056774425
203	0x3dd2d7ed	0.10295091
204	0x3c36e7ec	0.011163693
205	0xbde1d78e	-0.11027442
206	0xbd063937	-0.032769408
207	0xbc2d301b	-0.010570551
208	0xbbfb829b	-0.0076754815
209	0xbc28f107	-0.010311372
210	0x3cc1d358	0.023660347
211	0x3cf5624b	0.029954096
212	0xbd858422	-0.06519343
213	0x3d3479e8	0.04406157
214	0xbe2016ed	-0.15633745
215	0x3db707e3	0.08937051
216	0xbd810321	-0.06299425
217	0x3a99e6c7	0.0011741751
218	0x3c8d5be1	0.017255725
219	0xbd3d6be1	-0.04624546
220	0x3df58126	0.11987524
221	0xbd4a06fe	-0.049323075
222	0xbcdbe9c2	-0.026844863
223	0x3d6bd025	0.05757155
224	0xbc63053d	-0.013856229
225	0x3d9fcd6e	0.078028545
226	0xbda68818	-0.081314266
227	0x3dd72c08	0.10506445
228	0x3d88c330	0.06677854
229	0x3e093081	0.13397409
230	0xbd2cc279	-0.04217765
231	0xbdcc1606	-0.09965138
232	0x3e00b58f	0.12569259
233	0x3d1922af	0.037386592
234	0x3dc8301c	0.09774801
235	0x3d5983d3	0.053104233
236	0x3db9bb44	0.09068921
237	0x3b610a89	0.0034338555
238	0xbde448fe	-0.11146735
239	0x3cd944c5	0.02652205
240	0xbd12ad67	-0.0358099
241	0xbc1c9fc6	-0.009559577
242	0xbe051ebf	-0.1300001
243	0x3d1941ea	0.037416376
244	0xbd8eea31	-0.06978262
245	0xbcde5140	-0.027138352
246	0xbd7b3471	-0.06132931
247	0x3d64560a	0.055746116
248	0xbd220351	-0.039553944
249	0xbd7f7e8a	-0.062376536
250	0xbd969849	-0.07353265
251	0xbb057aee	-0.0020367461
252	0xbd708015	-0.0587159
253	0xbd9d5d25	-0.076837815
254	0x3de6f6b5	0.112775244
255	0xbdc5ecfd	-0.096643426

lstm.bias_ih_l0 f4 [256]
0	0xbdb58f08	-0.08865172
1	0xbce4dde7	-0.027937843
2	0xbcfe5492	-0.031046186
3	0x3dc38f16	0.09548776
4	0x3dd8aca3	0.10579803
5	0x3d5669e6	0.052347086
6	0xbd952122	-0.0728171
7	0x3db7a332	0.08966674
8	0xbc9e80c2	-0.019348506
9	0xbd8f9b78	-0.07012075
10	0xbda9bd0f	-0.08288013
11	0xbd49003b	-0.049072485
12	0xbda9da2b	-0.08293565
13	0x3d12451a	0.03571043
14	0x3da067df	0.07832312
15	0xbd3625f8	-0.044469804
16	0xba564534	-0.0008173764
17	0x3bcac899	0.006188464
18	0x3cda3e2a	0.02664097
19	0x3d60c5d3	0.05487616
20	0x3d154e43	0.03645159
21	0xbe052455	-0.13002141
22	0xbdcf5ada	-0.101247504
23	0x3da9228d	0.08258543
24	0xbca9377c	-0.02065634
25	0x3d86f9aa	0.065905884
26	0x3da76211	0.081730016
27	0xbd549268	-0.051897436
28	0xbd4fe664	-0.050756827
29	0xbb1cb906	-0.0023913994
30	0xbe0605c1	-0.13088132
31	0x3d123c61	0.035702113
32	0x3dd3c895	0.10340992
33	0xbdc8bb7a	-0.09801383
34	0x3d8f2855	0.069901146
35	0xbdebb188	-0.11508471
36	0x3d9ddb18	0.077078044
37	0x3d342224	0.04397787
38	0xbb8918e6	-0.0041838763
39	0x3dd9b3a5	0.106299676
40	0xbdbc2fe9	-0.09188826
41	0x3d6ff91b	0.058587175
42	0x3d86f553	0.06589761
43	0x3de5cebc	0.11221072
44	0xbce50293	-0.027955329
45	0xbde1893e	-0.11012505
46	0xbb3000d3	-0.002685596
47	0x3debc899	0.1151287
48	0x3cf715df	0.030161796
49	0x3d002257	0.03128275
50	0x3d6dc879	0.058052514
51	0xbdfd03a0	-0.12354207
52	0xbd19f14c	-0.037583634
53	0x3dee488f	0.11634933
54	0x3c9b9f1f	0.018996773
55	0xbd30f249	-0.04319981
56	0x3d90c775	0.070692934
57	0xbd295289	-0.041338477
58	0xbd81e80a	-0.06343086
59	0xbd8016a8	-0.06254321
60	0x3d23438a	0.039859332
61	0xbd9da13b	-0.07696768
62	0x3d3087e4	0.043098345
63	0xbd4f8511	-0.05066401
64	0x3d384c05	0.044994373
65	0x3d0a39a9	0.033746395
66	0x3c94bb78	0.018155798
67	0xbd524d02	-0.05134297
68	0x3c9dbbed	0.019254649
69	0xbd8ee6f2	-0.06977643
70	0x3d435ef6	0.047697984
71	0xbdc3852d	-0.09546886
72	0x3d7df70c	0.06200318
73	0x3d7f2d35	0.062298972
74	0x3d239c9b	0.039944272
75	0x3d7b241b	0.06131373
76	0xbd9d7fe9	-0.076904126
77	0xbd5eaa49	-0.054361615
78	0xbdc4e65b	-0.09614249
79	0x3da03c6d	0.07824025
80	0xbd791de2	-0.060819514
81	0x3dbb817d	0.09155557
82	0xbbe13c95	-0.006873677
83	0xbbbbe55d	-0.0057341293
84	0xbe272cbd	-0.1632566
85	0xbcff7193	-0.031182086
86	0xbcbb0bcf	-0.02283278
87	0x3cdde6c4	0.027087577
88	0xbcb283b6	-0.02179132
89	0x3d8ec6d6	0.06971519
90	0xbcc21517	-0.023691697
91	0xbd4fa386	-0.050693057
92	0x3dc42a8e	0.09578429
93	0x3d8432a3	0.06454971
94	0xbdd8a8b5	-0.10579053
95	0xbd97160a	-0.073772505
96	0x3c8104b3	0.015749311
97	0xbd898c5e	-0.06716226
98	0x3de4c675	0.11170665
99	0x3ddd6642	0.1081052
100	0x3d781cd6	0.060574375
101	0x3da9e4dd	0.08295605
102	0xbdf6b93a	-0.12047048
103	0x3d57e003	0.05270387
104	0x3dc60ab9	0.09670014
105	0xbde363ee	-0.111030445
106	0x3d3395f1	0.043844167
107	0xbd89338a	-0.066992834
108	0x3b2d54be	0.0026448215
109	0x3df069df	0.11738943
110	0xbc5c1347	-0.01343233
111	0x3dadfac8	0.08495098
112	0xbdde7b6b	-0.10863384
113	0x3da82664	0.082104474
114	0x3dd28375	0.1027898
115	0x3d456b68	0.048198134
116	0xbc2fe6e3	-0.0107362
117	0xbcd90fe1	-0.02649683
118	0x3da1425c	0.07873985
119	0xbb873c61	-0.004127071
120	0x3da4deda	0.08050318
121	0x3d310627	0.043218758
122	0x3cfdedad	0.030997122
123	0xbd5529c8	-0.0520418
124	0xbd33babe	-0.043879263
125	0x3d92f462	0.071755186
126	0x3dc598b1	0.09648264
127	0xbc15aca6	-0.009135401
128	0x3ccd3cff	0.0250535
129	0x3dab37dd	0.083602645
130	0xbd51a1e2	-0.051179774
131	0xbe0415fc	-0.12899011
132	0x3d5b2358	0.053500503
133	0xbdb29ccc	-0.08721313
134	0xbdf4dba7	-0.11955958
135	0xbcdce560	-0.026964843
136	0xbe057a0e	-0.13034841
137	0xbdd5414a	-0.104128435
138	0xbe075485	-0.13215835
139	0x3dd7e243	0.10541203
140	0x3d806066	0.062683865
141	0xbdc52405	-0.09626011
142	0x3cb91f7b	0.022598019
143	0x3d0f1a03	0.034936916
144	0x3d375535	0.044758994
145	0xbcadeb47	-0.021230353
146	0xbd30dd48	-0.04317978
147	0xbde63ea6	-0.11242418
148	0x3dbd4937	0.0924248
149	0x3d2373a8	0.03990522
150	0x3ddb821a	0.10718174
151	0x3d182f99	0.037154768
152	0xbbcd5b54	-0.0062669907
153	0xbc84f785	-0.016231308
154	0x3ca47d5a	0.020079304
155	0xbd497578	-0.049184293
156	0xbdd61833	-0.104538344
157	0x3dd6d283	0.10489371
158	0xbcc03d3f	-0.023466704
159	0x3df7271c	0.120680064
160	0x3de74d73	0.11294069
161	0x3bc04957	0.005868118
162	0x3d291525	0.04127993
163	0x3d53caa6	0.051706932
164	0xbca82aba	-0.020528186
165	0x3dd18199	0.10229797
166	0x3ac92067	0.001534474
167	0x3d9cd892	0.07658495
168	0x3c558f31	0.013034628
169	0xbd169c3a	-0.036770083
170	0xbdc04d05	-0.0938969
171	0x3c888e84	0.01666952
172	0x3c210f5d	0.009830323
173	0x3da81ad3	0.08208241
174	0xbd3d2765	-0.046180148
175	0x3da9fe8d	0.08300505
176	0x3de218b9	0.11039872
177	0x3d6765ee	0.056493692
178	0x3de54817	0.11195391
179	0xbdde8329	-0.108648606
180	0xbdb69b33	-0.08916321
181	0x3d179453	0.037006687
182	0xbdea4421	-0.11438776
183	0x3c6f0695	0.014588972
184	0x3cc416d8	0.023936674
185	0x3d415bb3	0.04720659
186	0xbdc0a100	-0.09405708
187	0xbc5bc7ad	-0.013414306
188	0x3ddecfc6	0.108794734
189	0x3dd2d4ab	0.102944694
190	0x3dd79c69	0.1052788
191	0x3d714512	0.05890376
192	0xbdae5450	-0.08512175
193	0xbd91530f	-0.0709592
194	0x3df08382	0.11743833
195	0x3ccd54bb	0.025064817
196	0x3dd4964a	0.10380228
197	0xbd7ebb98	-0.062190622
198	0x3dec6202	0.11542131
199	0xbd8939fe	-0.06700514
200	0xbd445d5f	-0.047940608
201	0x3d14b5aa	0.03630606
202	0x3c9bdc20	0.019025862
203	0x3ded6b7e	0.11592768
204	0x3d4cb65c	0.0499786
205	0xbdf9ef87	-0.12203889
206	0xbcecbed0	-0.02889958
207	0xbdbdf928	-0.092760384
208	0x3cb3e46c	0.021959506
209	0x3d6fd8cb	0.05855636
210	0x3d84036c	0.06445965
211	0x3c99f416	0.018793147
212	0x3da73fd5	0.08166472
213	0xbe01910e	-0.1265299
214	0x3d8808c3	0.06642296
215	0x3deff2ee	0.11716257
216	0x3da8e851	0.08247436
217	0xbc5b8e33	-0.013400602
218	0xbc1a1200	-0.009403706
219	0x3d286dc5	0.04112031
220	0xbd90b336	-0.07065432
221	0x3ddcd38b	0.10782536
222	0xbd46d970	-0.04854721
223	0xbd88e9f4	-0.06685248
224	0xbce06dcd	-0.027396107
225	0xbdf3b28e	-0.11899291
226	0x3cc7f256	0.024407547
227	0xbdb5ced5	-0.08877341
228	0x3d6c1cfd	0.057644833
229	0xbd4a11d0	-0.049333394
230	0xbd614101	-0.054993633
231	0xbd07fe9b	-0.033201795
232	0xbd93e1b4	-0.07220784
233	0xbdb75a55	-0.08952776
234	0x3d788311	0.06067187
235	0x3dc2fb7d	0.09520624
236	0xbdae823c	-0.08520934
237	0xbcb742a8	-0.022370651
238	0xbcb23717	-0.021754785
239	0xbd648baf	-0.055797275
240	0x3c5177aa	0.012784878
241	0xbd813ee4	-0.063108236
242	0x3d27d5f1	0.040975515
243	0x3d687a22	0.0567571
244	0xbdd29085	-0.10281471
245	0xbcbf95d6	-0.023386877
246	0xbce8c1af	-0.028412668
247	0x3d1e4f12	0.038649626
248	0xbd44f536	-0.048085414
249	0x3c966ac4	0.018361457
250	0xbd05a54d	-0.032628346
251	0x3dbe7c3c	0.093010396
252	0x3c3d933a	0.011570746
253	0xbc3f8c5b	-0.011691178
254	0x3d12e269	0.035860453
255	0xbda3f565	-0.0800579

lstm.bias_hh_l0 f4 [256]
0	0x3c20c3ba	0.00981229
1	0x3cee145f	0.029062448
2	0x3cec4a7f	0.028844116
3	0xbd04ca39	-0.032419417
4	0x3df97601	0.121807106
5	0x3dcc681b	0.09980794
6	0xbd2daab3	-0.04239912
7	0x3db05156	0.086092636
8	0xbde206ef	-0.11036479
9	0xbde80f22	-0.11331011
10	0x3db08bb5	0.08620397
11	0x3d2e0f0a	0.04249481
12	0xbc003cda	-0.007827008
13	0xbdb8176e	-0.08988844
14	0x3cb8ce30	0.022559255
15	0xbd0076a6	-0.031363152
16	0xbac55275	-0.0015054481
17	0x3d76aff8	0.06022641
18	0x3ddb5457	0.10709446
19	0x3d9f08bd	0.077653386
20	0xbc0fc8ac	-0.008775871
21	0x3bf09d61	0.00734298
22	0x3b6a6045	0.0035762948
23	0x3d13db6f	0.03609794
24	0x3e10fef4	0.14159757
25	0xbdf895b2	-0.12137927
26	0xbded3b13	-0.11583533
27	0x3dcdb29e	0.10043834
28	0x3d91f0fe	0.07126044
29	0x3d6b6028	0.05746475
30	0xbe0d75c5	-0.13814457
31	0x3d7043a9	0.058658276
32	0xbdf40e5b	-0.119168006
33	0x3d2c9cd3	0.042141747
34	0x3d600d1d	0.054700006
35	0x3df8d98e	0.1215087
36	0xbd3eee42	-0.04661394
37	0xbdf201f0	-0.11816776
38	0xbc985104	-0.018593319
39	0xbd926c8b	-0.07149609
40	0xbdb160b3	-0.08661022
41	0x3d9b83cd	0.075934984
42	0xbd51a5e9	-0.051183615
43	0xbc0e98b5	-0.0087034
44	0xbddbe88e	-0.10737716
45	0x3d4b4b25	0.04963221
46	0x3df4d4a4	0.119546205
47	0x3d429be2	0.047511943
48	0xbd747e19	-0.05969057
49	0x3c8fc476	0.017549735
50	0xbc9ccda6	-0.01914103
51	0x3d8f9cb4	0.070123106
52	0x3dc1d78d	0.09464941
53	0x3d221b33	0.03957672
54	0xbd367c34	-0.044552043
55	0x3e02856f	0.12746213
56	0x3dc37fe4	0.095458776
57	0xbd68124d	-0.056658078
58	0xbdb6fdf6	-0.08935158
59	0xbe16db31	-0.14732052
60	0x3be88cfc	0.007096885
61	0xbd1a3235	-0.037645537
62	0x3d06cbe8	0.032909304
63	0xbd9c3a71	-0.07628334
64	0x3dd5d1d7	0.104404144
65	0xbda61ed8	-0.08111352
66	0xbcc745cc	-0.024325274
67	0x3d2aea24	0.0417272
68	0x3d10e53e	0.035374872
69	0xbccc1ebb	-0.024916997
70	0xbdf02a61	-0.11726833
71	0x3a991a1b	0.0011680754
72	0x3da1293d	0.07869194
73	0x390ecf7f	0.00013619474
74	0xbd70e81d	-0.05881511
75	0xbd018c21	-0.031627778
76	0x3d33769f	0.043814298
77	0xbcf7d434	-0.030252554
78	0xbd5aeba2	-0.053447373
79	0xbdbcd14b	-0.09219607
80	0x3d1c7b9a	0.038203813
81	0xbd2496f5	-0.040183026
82	0x3ca41c04	0.02003289
83	0x3ca3faf3	0.020017123
84	0xbe17bc78	-0.14817989
85	0x3dcbe33c	0.09955451
86	0x3cb1fb82	0.021726374
87	0x3ce8fa43	0.028439647
88	0x3da47a06	0.080310866
89	0x3c580b77	0.013186327
90	0xbda17736	-0.07884066
91	0x3d90a40f	0.07062542
92	0xbd2a0a09	-0.041513477
93	0xbd11ed5a	-0.035626747
94	0x3da3c951	0.079973824
95	0xbdd0ed78	-0.102015436
96	0x3c608b17	0.013705037
97	0x3b34de7f	0.0027598438
98	0x3cdf51bb	0.027260652
99	0xbbed3f45	-0.0072402083
100	0xbd59e99f	-0.053201314
101	0xbd8668d0	-0.0656296
102	0x3d45dc2a	0.048305668
103	0x3d0cae6f	0.03434604
104	0xbbfba5e9	-0.00767969
105	0xbce3ce08	-0.027808204
106	0xbe04ae50	-0.1295712
107	0x3db17747	0.086653285
108	0xbd585846	-0.05281856
109	0x3d13e842	0.03611017
110	0xbdbc6709	-0.0919934
111	0x3d2a0184	0.04150535
112	0x3cb3f7f2	0.021968815
113	0xbd585345	-0.052813787
114	0xbd71ac91	-0.059002463
115	0x3d8b8897	0.06813162
116	0xbc4e7e3a	-0.012603337
117	0xbc6f6966	-0.014612531
118	0x3dc27532	0.094950095
119	0xbd127194	-0.035752848
120	0xbe14cc81	-0.14531137
121	0xbdeb76d2	-0.114972726
122	0xbcde7c6d	-0.02715894
123	0xbe08422e	-0.13306496
124	0xbcfedd6c	-0.031111442
125	0xbd938194	-0.072024494
126	0x3da7c9b3	0.08192768
127	0x3cbc1c80	0.022962809
128	0xbdf831c1	-0.12118865
129	0xbd92a6d1	-0.07160724
130	0xbd05f9c2	-0.03270889
131	0x3dbd31c9	0.092380114
132	0xbce9a155	-0.028519312
133	0x3d9fe858	0.07807988
134	0x3dd3436b	0.10315593
135	0xbd8873c9	-0.06662709
136	0xbdbea991	-0.09309686
137	0xbd1b3f2d	-0.037902046
138	0xbb999992	-0.0046874965
139	0x3b0f5155	0.0021868546
140	0xbdaacd26	-0.0833991
141	0xba997894	-0.0011708909
142	0x3ddc152d	0.107462265
143	0x3d5ef3cb	0.054431718
144	0x3dcb0fe6	0.09915142
145	0x3dd61cd7	0.104547195
146	0x3da09bc2	0.078422084
147	0x3c950887	0.018192543
148	0x3cfdda4f	0.030987887
149	0x3d009744	0.03139426
150	0x3bbf6878	0.005841311
151	0xbdeae5a5	-0.114695825
152	0xbb83519e	-0.0040075323
153	0x3d8aeea1	0.06783796
154	0x3d94c134	0.07263413
155	0x3d99370c	0.074812025
156	0xbdaddc13	-0.084892415
157	0x3c5c762e	0.013455911
158	0x3c244b87	0.010027773
159	0xbde9722a	-0.11398728
160	0x3c98fcc0	0.018675208
161	0xbcf2f416	-0.029657405
162	0xbbed4616	-0.007241021
163	0x3cedc571	0.029024811
164	0xbc54b76a	-0.012983182
165	0xbd1201d6	-0.035646282
166	0x3b5517f3	0.0032515496
167	0xbda32fc8	-0.07968098
168	0xbdc6d41d	-0.09708426
169	0xbdb2e896	-0.087357685
170	0xbde16873	-0.1100625
171	0xbd600c63	-0.054699313
172	0xbd9b4504	-0.07581523
173	0xbdb695f3	-0.08915319
174	0x3d39580f	0.045249995
175	0xbd6bc488	-0.057560474
176	0x3dc37195	0.095431484
177	0x3e04d47c	0.12971681
178	0xbc871809	-0.016490953
179	0x3d87180f	0.06596386
180	0x3dd4630f	0.103704564
181	0x3d3a6fab	0.04551665
182	0xbc34c251	-0.011032657
183	0xbc26a56a	-0.010171274
184	0xbdac952a	-0.08426888
185	0xbd2c1429	-0.042011414
186	0xbaca297a	-0.0015423738
187	0xbdc7813d	-0.09741447
188	0xbc1780d4	-0.009247024
189	0x3ddf275d	0.1089618
190	0xbdf19cb9	-0.117974706
191	0x3da04f5e	0.07827638
192	0x3dce57c6	0.10075335
193	0xbcde760b	-0.027155897
194	0x3d95c26d	0.073124744
195	0xbe1013e7	-0.14070092
196	0xbdc08ba4	-0.09401634
197	0xbbd15e3d	-0.006389408
198	0x3deee308	0.116643965
199	0x3d2219da	0.039575435
200	0xbdb19e40	-0.08672762
201	0xbd605422	-0.054767735
202	0xbd713e41	-0.05889726
203	0xbd62361b	-0.05522738
204	0xbc983801	-0.018581392
205	0xbe05a6d9	-0.13051929
206	0xbc821760	-0.015880287
207	0xbcb6ce4b	-0.022315165
208	0x3c306305	0.010765796
209	0x3c859d78	0.016310439
210	0xbcf90059	-0.030395674
211	0xbdd9cfd2	-0.10635342
212	0x3e00589c	0.12533802
213	0xbddde1d4	-0.10834089
214	0xbd407ac1	-0.046992067
215	0x3df747af	0.120742194
216	0xbdc5fe37	-0.09667628
217	0xbd05470d	-0.032538462
218	0xbcdd5af6	-0.027020913
219	0x3d758ec6	0.059950612
220	0x3dc146ff	0.094373696
221	0xbda87497	-0.08225363
222	0xbc4d1712	-0.012517707
223	0xbcbe5ef8	-0.023238644
224	0xbdd68f4d	-0.10476551
225	0xbd7ae083	-0.061249267
226	0xbde86a50	-0.113484025
227	0x3cb3354f	0.021876005
228	0x3b34711c	0.0027533239
229	0x3d8bd257	0.068272285
230	0xbda7d8ee	-0.08195673
231	0xbda67d78	-0.081294
232	0xbdef397e	-0.11680888
233	0xbd88609c	-0.06659052
234	0xbd8d89b9	-0.06911034
235	0xbcfaa87d	-0.03059792
236	0xbe01d1d5	-0.12677701
237	0xbdb4e114	-0.08831993
238	0xbc1ea4a9	-0.009682813
239	0xbd171ffc	-0.036895737
240	0xbddcfd1c	-0.10790464
241	0xbdcd776a	-0.10032542
242	0xbd13d141	-0.036088232
243	0x3d3d3602	0.046194084
244	0x3d171a50	0.036890328
245	0x3d2492ab	0.040178936
246	0xbc72463b	-0.014787252
247	0x3d16b436	0.036792956
248	0x3dd49c82	0.10381414
249	0xbceb0dd0	-0.02869311
250	0x3ce4fe49	0.027953284
251	0xbe109567	-0.14119492
252	0xbddf4ab7	-0.109029226
253	0x3d0a8644	0.033819452
254	0xbde00b61	-0.1093967
255	0x3dd38875	0.103287615

Linear2.weight f4 [2, 64]
0	0xbd96f57e	-0.07371043
1	0x3dc7dbd2	0.09758724
2	0x3d164fbf	0.036697146
3	0xbd9e774f	-0.077376
4	0xbdde424e	-0.1085249
5	0xbd3d7782	-0.04625655
6	0x3d5b578b	0.053550284
7	0x3d8a1dab	0.0674394
8	0xbd5f5836	-0.054527484
9	0xbd39c701	-0.0453558
10	0xbd735dff	-0.059415814
11	0x3d042203	0.032259
12	0xbda092a5	-0.0784047
13	0xbd936fb8	-0.07199043
14	0x3e063d63	0.13109355
15	0x3df5961e	0.11991523
16	0x3dc88de5	0.09792689
17	0xbd5eaba4	-0.054362908
18	0x3d0bba8e	0.03411346
19	0xbdb6be3f	-0.08923005
20	0xbe14df8d	-0.14538403
21	0xbdb92133	-0.090395354
22	0xbd966b9d	-0.07344744
23	0xbd1b7ae7	-0.037959006
24	0xbdacf931	-0.08445967
25	0x3d36bd18	0.044613928
26	0x3cbf73e0	0.023370683
27	0x3ded19af	0.115771644
28	0x3d9cece4	0.07662371
29	0x3d8f7479	0.07004637
30	0x3da987b9	0.0827784
31	0xbd82b9e9	-0.06383116
32	0xbc61dbbd	-0.0137853
33	0xbdacd7c9	-0.08439595
34	0x3c5618c3	0.013067427
35	0xbd1199a7	-0.035546925
36	0x3d51ace7	0.051190283
37	0xbd557612	-0.052114554
38	0x3de751d2	0.11294903
39	0x3cda8384	0.02667404
40	0x3d5eb1ff	0.05436897
41	0x3d9bf6c9	0.0761543
42	0x3d587260	0.05284345
43	0x3d615ec7	0.055022027
44	0xbd803835	-0.06260721
45	0x3c8a879b	0.016910365
46	0x3dbb48c0	0.09144735
47	0xbd2ed1d7	-0.042680588
48	0xbdc7f346	-0.097631976
49	0x3dcc9719	0.09989757
50	0x3d2afb56	0.0417436
51	0xbc32eb04	-0.01092029
52	0x3d30c7bc	0.04315923
53	0x3dc04c67	0.093895726
54	0x3d4b3800	0.049613953
55	0x3bc78926	0.0060893474
56	0xbdb1037e	-0.08643244
57	0xbdead4c6	-0.114663646
58	0xbda92429	-0.0825885
59	0x3dbb3734	0.091413885
60	0xbd6d4c03	-0.05793382
61	0xbd2580ae	-0.04040592
62	0x3cff5af7	0.031171305
63	0xbdd78c15	-0.105247654
64	0x3d5ff2f6	0.054675065
65	0x3dcf886a	0.10133441
66	0x3df3921e	0.11893104
67	0x3d5d92bd	0.05409502
68	0xbd1e9ba4	-0.03872265
69	0x3c566506	0.013085609
70	0x3ddcdcc1	0.10784293
71	0xbc67186e	-0.014104946
72	0xbdd9820d	-0.10620508
73	0xbd912757	-0.070875816
74	0xbca12fe2	-0.019676153
75	0x3c5554f8	0.013020746
76	0xbd88c1fd	-0.06677625
77	0x3d25160a	0.04030422
78	0x3dabed00	0.083948135
79	0xbc702362	-0.014656873
80	0x3cd757b2	0.026286934
81	0x3c69f7e0	0.014280289
82	0x3d7257eb	0.059165876
83	0x3d3dd4a1	0.046345357
84	0xbd32c821	-0.04364789
85	0x3d616095	0.05502375
86	0xbcae0bf5	-0.021245936
87	0x3e01e23b	0.12683956
88	0xbdd2e306	-0.102972075
89	0x3dfd8796	0.123793766
90	0x3d9312cc	0.071813196
91	0xbd13c2db	-0.0360745
92	0xbde845fa	-0.11341472
93	0x3cebdc9d	0.02879172
94	0xbcfebeaa	-0.031096775
95	0x3d9a2eee	0.075284824
96	0x3a3d24d1	0.0007215264
97	0x3d3d4c07	0.046215083
98	0xbdbd2d12	-0.09237112
99	0xbd7e8113	-0.062134814
100	0x3c5117f4	0.0127620585
101	0xbdff0d3f	-0.12453698
102	0x3dd3a37c	0.103339165
103	0x3c975ebd	0.018477792
104	0x3cc78517	0.024355454
105	0x3d9de175	0.07709018
106	0xbd2747b8	-0.04083988
107	0xbdd2ce69	-0.10293276
108	0xbd404abe	-0.04694628
109	0xbc29aee4	-0.010356639
110	0xbd51da5e	-0.05123364
111	0xbb983079	-0.0046444503
112	0xbe00dec1	-0.12584974
113	0x3d615ead	0.05502193
114	0x3dc98046	0.09838919
115	0xbd9fe333	-0.07807007
116	0x3dbbbf0b	0.09167298
117	0x3cf4aecb	0.029868504
118	0xbd777476	-0.0604138
119	0x3c3788af	0.0112020215
120	0xbc1b64fe	-0.009484528
121	0xbd2aa04e	-0.041656785
122	0xbc440510	-0.011964098
123	0xbd46f6ec	-0.048575327
124	0xbd7887f6	-0.060676537
125	0x3c20e0cd	0.009819222
126	0xbdcb87dd	-0.09938023
127	0x3d78e812	0.060768194

Linear2.bias f4 [2]
0	0xbd5a99c0	-0.053369284
1	0xbc73578f	-0.014852419
