DRQN_POMDP_Random_FOMDP_SEED_1.pth (torch, 137532 bytes, 8 tensors)

Linear1.weight f4 [64, 4]
00000000: f673 803e 9b5f 5dbe 80df f3bd c27d 693e
00000010: db41 efbe f7bb 993e f0b5 ddbd 84b8 813e
00000020: 2ccb 8d3d 86b4 7cbd db24 183e 068e d53c
00000030: f7da 3d3e bca8 44be fa06 49bd a237 48bd
00000040: 3f69 a43d 00fe 05bb e4e4 dc3e 51ca 1e3e
00000050: 76ec 41be d1c9 99be 0b11 a2bd 3dd5 5dbe
00000060: 0239 18be 3a3f 043d 71db 973e f14e 873e
00000070: 9728 fabe 7b4e 9f3e 6973 143e cd9f f23e
00000080: 4b74 a73e 9195 e5be 8daa f5be 9710 7ebe
00000090: 65e3 e03e 5142 aabd c2c6 5a3e bc19 6ebe
000000a0: 3891 fb3e 7a83 56be 56c7 bd3e 304e 573b
000000b0: 82dd 86be 7a96 833e d4e3 87be e494 163e
000000c0: 08e3 1ebe f11a 7cbd 71fe f2be 5883 6dbe
000000d0: 4a64 8a3e c81f f9bd 5232 013f c1a9 cd3e
000000e0: a469 e2bc 1f01 a9be bea1 9d3e b3e3 1b3e
000000f0: a720 a3be 53c2 a73e cc88 9e3e 4213 e23e
00000100: 22de 82be c925 91bd 6342 4ebc 0fc0 803d
00000110: 65d4 c1be 3952 b4be a3cf 883e 6d80 f6bd
00000120: 3168 713e 9545 943c 0e59 503e beee ff3d
00000130: b429 3a3e cccd 7d3e ae15 edbe a4db 803e
00000140: 9156 b8be d953 c4be 65a8 523d 1613 9ebd
00000150: 0480 963e 458a 93be 8833 e7be 8c33 b93e
00000160: 81d2 9fbd 69cd 893e 10d3 243e 6bc4 b9be
00000170: d629 d03d c93e f63d ecd4 a8be 2240 6ebe
00000180: 12b7 2b3e a2be b43d c5ea 52be 51a2 19be
00000190: d809 eb3e 1594 b8bd f80c 8e3e 64c2 5a3e
000001a0: bba8 9abe 635f d4be b880 f13e aab2 833c
000001b0: fcc9 b13e 16b2 d63d 74e2 1c3e c43d be3e
000001c0: e2d5 f33e 68d2 a7be f4ad 843d 565d bd3e
000001d0: 3abc b93e 5edb 9e3e 326a bbbe ef2b b8be
000001e0: c84f 9bbe bc08 7e3d ee81 ff3e b14e a1be
000001f0: 95aa 883e 6afd 8cbe 1f78 efbe 0155 dbbd
00000200: 8136 933e 7735 ed3e 64f7 a0be d704 e03d
00000210: 0155 dc3e 63e2 aa3e 5d61 a23e e00f b53e
00000220: e971 9c3e d191 f93d 7fa9 b3be 1a50 d8be
00000230: 2196 5dbe 1d87 38bd 94b2 a3be 73dc 2d3e
00000240: cd18 213e 9cf7 e7bd 9b81 413e bdfc 243e
00000250: f2f9 9c3e 46cc af3e d7c6 3abe 0754 f63e
00000260: 4452 5fbd 6063 cdbc 7e4e ebbe da86 9cbe
00000270: 5c8e 95be 80fe 5abe 1a02 b63e d84f 27be
00000280: faeb bdbe 692b 473e 3ce1 1b3e 7563 a43e
00000290: 6a78 8cbe d6d8 d73d 93e8 39be a40f f8bd
000002a0: 2b2f ccbe 59c7 68be 8e5f 16be 5e2d 5b3e
000002b0: cc4e c43d 6592 073e e9b8 fd3e b157 f53e
000002c0: 54ed ae3e d852 8c3c 4631 afbe 55ca c73e
000002d0: 248c 01be e096 28bd 28d8 dbbe 3cce c8bd
000002e0: 84c8 a1be da8f e63e 5239 ddbe 5e87 c1be
000002f0: c015 8bbc 546c 8abe 1833 373e f814 45be
00000300: 4441 7abe 4000 dc3c 0b07 bc3e a64e b3be
00000310: 3217 6a3e beda 9e3e 5483 fa3e ec8a adbe
00000320: a000 f83d 144b bdbe 608f da3e a89b 46be
00000330: f0a7 9b3e fd4d 883c 7f98 3ebd 65f8 96bc
00000340: 8984 b33d 7db6 723e cb29 ac3d d493 1b3e
00000350: 4f3f e4be bcd8 ba3e 742e db3e 2de3 d23e
00000360: 1682 be3e 2ea5 b7be d2cc 41be 5272 e03e
00000370: b099 c2be 72ee e73e 737b ccbe 6c04 b4be
00000380: c6b4 7b3e 9f23 b7be 632e dfbd 06d2 b93e
00000390: 85c4 ca3e cac9 f13e 40ae dcbd 57a8 c6be
000003a0: 98b4 fb3e 01c5 cdbd 1279 58be 2883 ec3d
000003b0: 508b b4be 6e39 a73e 55f5 a23e 3715 cabe
000003c0: 7645 d2be c065 33bd 940d 573e 0042 6dbc
000003d0: 40e8 89be ce06 893c d592 e0be 9ff0 b7be
000003e0: c6a2 c4be 88fc c73e 85ab e53e 60b4 1bbe
000003f0: 0969 c83b 240d 5d3e 045e 7d3d b2b9 7abe
0.2508847 -0.21618502 -0.119078636 0.22801879 -0.4672993 0.30026218 -0.108257174 0.25336087
0.069235176 -0.061695598 0.14857809 0.026068699 0.1854056 -0.19204992 -0.04907892 -0.04888118
0.080278866 -0.0020445585 0.4314338 0.15506865 -0.18937859 -0.30036786 -0.07913407 -0.21663375
-0.14865497 0.03228686 0.29659608 0.26427415 -0.48859093 0.31114563 0.1449715 0.47387543
0.32705912 -0.44840673 -0.47981682 -0.24811016 0.43923488 -0.0831343 0.21364883 -0.23252004
0.4913423 -0.20948592 0.37066144 0.0032853 -0.26340872 0.25700742 -0.26541007 0.14705235
-0.15516293 -0.06154913 -0.47459748 -0.23194635 0.2702964 -0.12164265 0.5046741 0.40168574
-0.027638264 -0.33008668 0.30787462 0.15223579 -0.3186085 0.32765445 0.30963743 0.44155318
-0.255601 -0.07087285 -0.01258907 0.06286632 -0.37857357 -0.3521898 0.26720914 -0.12036214
0.23574902 0.018099586 0.20346472 0.12496708 0.18179971 0.24785537 -0.46305603 0.25167572
-0.36003545 -0.3834522 0.051430125 -0.07718484 0.29394543 -0.2881643 -0.45156503 0.3617214
-0.07803822 0.26914528 0.16096139 -0.36282668 0.101642296 0.12023694 -0.32974946 -0.23266652
0.16769055 0.08825423 -0.2059737 -0.15003325 0.45905948 -0.090126194 0.2774427 0.21363217
-0.30206856 -0.41479024 0.47168517 0.016076405 0.34724414 0.10483186 0.1532076 0.37156498
0.47624117 -0.32777715 0.064784914 0.36985272 0.36276418 0.3102674 -0.36604458 -0.3597102
-0.30334306 0.06202005 0.49903816 -0.3150535 0.26692644 -0.2753709 -0.46771333 -0.107095726
0.2875252 0.46329853 -0.31438744 0.10938423 0.43033603 0.33375844 0.31714907 0.35363674
0.30555657 0.121860154 -0.35090253 -0.42248613 -0.21639301 -0.04505073 -0.31972182 0.16978626
0.15732117 -0.113265246 0.18897097 0.16112037 0.30659443 0.34335536 -0.18239914 0.48110983
-0.054521814 -0.0250718 -0.45958322 -0.30571634 -0.29210174 -0.21386147 0.35548478 -0.16339052
-0.37094098 0.19450153 0.15222639 0.3210713 -0.2743562 0.10539405 -0.18155126 -0.12112358
-0.39879736 -0.22732295 -0.14684889 0.21404025 0.09585342 0.13239439 0.49555138 0.47918466
0.34165442 0.017129347 -0.3421728 0.39021555 -0.12651116 -0.04115951 -0.42938352 -0.09804961
-0.31598294 0.45031625 -0.43207794 -0.3779859 -0.016978145 -0.27035773 0.17890584 -0.1924628
-0.2443896 0.026855588 0.36724123 -0.35020941 0.22860411 0.31026262 0.4892832 -0.3389505
0.12109494 -0.36971343 0.4268751 -0.19395316 0.30401564 0.01663875 -0.04653215 -0.01842899
0.087655134 0.23702426 0.08406409 0.1519311 -0.4457955 0.3649348 0.42808878 0.41188946
0.37208623 -0.3586821 -0.18925789 0.4383722 -0.3800788 0.45299107 -0.39937934 -0.35159624
0.24580678 -0.35769364 -0.108975194 0.36293048 0.39603058 0.47224265 -0.10775423 -0.38800308
0.4916122 -0.10047341 -0.21139935 0.115484536 -0.35262537 0.32661003 0.31827798 -0.3946931
-0.4106862 -0.04379821 0.21001273 -0.014481068 -0.26935005 0.016726878 -0.43862024 -0.35925767
-0.38405436 0.39059854 0.44857422 -0.15205526 0.006116037 0.21587044 0.06185724 -0.244849

Linear1.bias f4 [64]
00000000: e37c 943e d785 9c3e 718a f6bc a8ea 82bd
00000010: 8fae e63e 24cf df3e aacf 95be 70b6 f93e
00000020: 5e20 fe3d c707 aabe 6da0 8b3e 821f bfbe
00000030: 1020 ee3e cf3a a4be bb73 103e 3ac3 163e
00000040: c016 ca3d 99a7 d33e 93e1 4abe b426 58be
00000050: e821 dcbe 2036 b0bc 17b0 7ebe c29c 4c3c
00000060: 721a d4bd 8d88 283e 415a d53e 2a26 163e
00000070: 8465 28be 5cbc 7bbe 2ab5 dfbe f29f d63e
00000080: 7d00 c4bd 17eb cc3d 056f 083c b9ae a9be
00000090: 8726 8f3e 6153 8e3e 3dd0 3f3c 627b 91be
000000a0: fdb9 5bbe 08d3 c83a 826c 92be b013 94be
000000b0: 5e88 99bd 8b3e 14be 4acd dd3d b093 06be
000000c0: a8ef 88bd 3a52 4dbe c4f2 e9be e026 de3e
000000d0: b52f bd3d 9bf8 e33e 2f80 aabd 0c89 01be
000000e0: c583 f1be 6519 43be dd04 a63e 5cab fbbe
000000f0: 7414 33be 9c4c 9c3e 3536 9d3e ace9 3f3e
0.2900153 0.30570862 -0.03009531 -0.063924134 0.45055053 0.43712723 -0.29259998 0.48772
0.12408517 -0.3320906 0.27270833 -0.37328726 0.46508837 -0.32076117 0.14106648 0.1472291
0.098676205 0.41338804 -0.19812612 -0.21108514 -0.42994618 -0.021510184 -0.2487186 0.012488546
-0.103566065 0.1645834 0.4167042 0.14662996 -0.16444975 -0.24583572 -0.43692905 0.41918904
-0.09570406 0.10005777 0.00832725 -0.33141115 0.27959082 0.27797988 0.011707363 -0.28414446
-0.21457668 0.0015321681 -0.2859841 -0.2892127 -0.07496713 -0.14476983 0.108301714 -0.13142276
-0.06686336 -0.20050898 -0.45693028 0.43389034 0.09237615 0.44525608 -0.0832523 -0.12649935
-0.47170845 -0.19052656 0.32425585 -0.49154174 -0.17488271 0.30527198 0.3070542 0.18741482

lstm.weight_ih_l0 f4 [256, 64]
00000000: 378c dabc 131c f8bb 9db3 f5bc 7904 56bd
00000010: 4d94 573d 2a52 20bd a55a 97bd 2741 e73c
00000020: 1bbf b8bd 476a efbc 82b4 813d 7859 3f3d
00000030: 7d4b fa3d f662 bbbd c845 efba 1851 1fbd
00000040: 8a78 91bd 70da 8dbd 57ef 2d3d 7045 563c
00000050: 6c62 59bd d7fe bdbd 182c d9bd 3010 023e
00000060: 3453 c6bc 0d04 01bd 5ae2 3ebd 48d1 85bd
00000070: cc5c f6bd 3049 9bbd 38d2 953d a1d6 ed3c
00000080: e2bf 3dbd c1bb 4cbd 5da9 ab3d 0863 b73d
00000090: ba4f f43d b4b4 0f3d 2bd5 903d a08d 24bc
000000a0: 89ad 9dbd 133d e6bd be69 8e3d b0da c3bc
000000b0: 00a1 3a3d d6d1 903b 2db3 d2bd 402f 7bbd
000000c0: cd90 073d 5d60 e2bc a835 f7bd 7a5f 423d
000000d0: c501 e63b 0692 22bd ef1d 3a3d 2c10 c73c
000000e0: 4f00 58bd b170 e13d aeec 7e3d 919e 4d3c
000000f0: 20a9 c4bc fe9f 9fbd 6c4c fe3d 4e4b 21bc
00000100: ee73 a6bd 5cdd 9d3d ffdf 3b3d f8a7 0a3d
00000110: 1a67 dcbc 009e 2bbd 496a 853c b54c c23d
00000120: cdd2 9c3c b9c2 81bd 098b fb3d 0034 2f3b
00000130: 1651 b93d 6b2e fe3c c23e e53d 8deb 903d
00000140: 26cb 84bd a791 af3d e8c1 3ebd e27e cdbd
00000150: e24f 4bbd 1e95 e4bd 9858 88bd 2390 c5bd
00000160: dafa a83d 1ce5 dabc c1ba bbbc 515b 733d
00000170: c8d6 573d 2300 adbd bf93 193d c481 523d
00000180: 3571 d1bd fa15 dc3d 0f21 a8bd ef5b 63bd
00000190: cf1f d5bd d292 e73d dc0a 413c 988f d73d
000001a0: ee29 653b efd2 543d b972 1dbd 3c40 cdbd
000001b0: 3004 b33c 6530 70bc 869e b3bc 6873 7bbd
000001c0: 6114 5f3a 9a40 0c3d f4b3 383d 6428 d5bd
000001d0: 1d9c 653d 584b 2a3c c639 b33d bcc7 b13d
000001e0: d42c c7bd 54a0 f23d 9103 febd b370 8c3d
000001f0: 9025 103c e974 153d 4f3c bbbd 5c99 643d
00000200: 68ae 81bd f244 e5bd b7ef 2a3d 5357 873d
00000210: eed8 fa3d 0308 87bc 3119 fe3d 32f5 a13d
00000220: daac 8bbd f5a9 c6bd bc7c 8c3d 9841 8cbd
00000230: 1dc5 523d d698 d9bd f066 b83d ef21 183d
00000240: 05d6 81bc 067e 623d 8e64 28bd 80da dfbc
00000250: 3475 c53c 8b4f 96bd d895 04bd 6453 5fbd
00000260: 7801 f33d e58f d73d 81a5 d93d f5cd cf3d
00000270: 5681 f6bd 1a45 293d 085c 393d 2d87 c2bd
00000280: 168a 4c3d 2795 8abd edf5 913c f658 403d
00000290: a32e da3d bf5e 88bd 1857 ccbd badd ec3d
000002a0: 1ad9 673d ffe8 6f3d 419a 373d 5b25 2fbd
000002b0: a258 983d 108f e1bd ef65 543c c071 673d
000002c0: a8e4 ad3d 25bd 80bd 1a07 adbd a579 343d
000002d0: e200 ccbd d7ac d6bd 6d0b e8bd ab47 7abd
000002e0: 3079 c2bc 4a90 98bd 7767 60bd e76f e3bd
000002f0: 4859 9d3d 8819 0cbd 2463 aebd 4d35 d53c
00000300: 2e68 c2bd b7aa b13d f8d5 903d 0d0f 01be
00000310: 7304 cbbd 40ee acbd 11cc 84bd 0dcb 6f3c
00000320: 2a9a 03be 25e7 bebd dd96 643d b8af 27bd
00000330: 72b1 4ebd 499e d4bd 57e7 493d d73c 083c
00000340: ac5c 4bbd 15b3 9fbd 73d4 983d 9c4f 0b3d
00000350: 87de a03d 9f83 113d c92d a1bc c2e4 bfbd
00000360: 6f76 a13d a98d 0fbb 72dd acbd 8ad6 da3d
00000370: 41d6 8b3d 6b42 cabd 14ce 80bd 208b 37bd
00000380: 1068 94bd 6d41 6e3d be9d b4bd 6b5c f83d
00000390: 23ac 58bd fa1d 953d 28e1 0f3c 4c2c 61bd
000003a0: b81f b13d 578f b8bd d347 8abd 4c3f 7a3c
000003b0: 7e08 c83d 8912 5bbd ea1c 9bbd 386f a3bd
000003c0: 75c9 63bd c531 33bd e882 eebc 0683 94bd
000003d0: 3c90 213d fb95 d239 343d aabd cb1f 93bd
000003e0: ae39 cf3c 0c0a 15bb 3cec b13d ffd5 a1bc
000003f0: d462 cfbd 7c0b b5bd f9e6 0bbd 6f67 e3bc
-0.026678188 -0.007571706 -0.029992873 -0.05225036 0.052631665 -0.039140858 -0.07390336 0.02822931
-0.090208255 -0.029225482 0.06333257 0.046716183 0.122214295 -0.09149735 -0.0018255049 -0.038895696
-0.07103069 -0.06926429 0.04246458 0.013078079 -0.053072378 -0.092771225 -0.10604113 0.12701488
-0.024209596 -0.031498004 -0.046602584 -0.06534058 -0.12029418 -0.07582319 0.07315487 0.029033007
-0.04632557 -0.049983744 0.08381913 0.089544356 0.11929269 0.03508444 0.070719086 -0.010043532
-0.07699115 -0.11242118 0.069537625 -0.02390799 0.045563698 0.0044195456 -0.10288081 -0.061324358
0.033097077 -0.02763384 -0.12070781 0.047454335 0.007019254 -0.03969004 0.045438703 0.024299704
-0.05273467 0.11007822 0.062237434 0.012550012 -0.024006426 -0.07794188 0.1241692 -0.009844614
-0.081275806 0.077082366 0.045867916 0.033851594 -0.026904631 -0.041898727 0.016286032 0.09487287
0.019143486 -0.063359685 0.12282378 0.0026733875 0.09048669 0.031027993 0.11193611 0.07076178
-0.0648406 0.08572703 -0.046571642 -0.100339666 -0.04963673 -0.11161254 -0.06657523 -0.096466325
0.08250971 -0.026720576 -0.0229162 0.059413258 0.052695066 -0.08447292 0.037494417 0.051393285
-0.10226671 0.10746379 -0.082094304 -0.055507597 -0.10406458 0.113073006 0.011782374 0.10525435
0.003496762 0.051958974 -0.038439486 -0.10022017 0.021852583 -0.014659976 -0.021926176 -0.061389357
0.00085098116 0.034241296 0.04509349 -0.104080945 0.056057084 0.01039394 0.08751254 0.086806744
-0.09725347 0.118469864 -0.12403024 0.06857433 0.008798018 0.036488447 -0.09142362 0.055810317
-0.063320935 -0.11194791 0.041732516 0.06608453 0.12248407 -0.016483312 0.12407149 0.079080954
-0.06820078 -0.097003855 0.06859729 -0.068484485 0.051457513 -0.10624854 0.09004009 0.037141737
-0.015849123 0.055295967 -0.04111152 -0.027325869 0.024103738 -0.0733939 -0.032369465 -0.054522887
0.118655145 0.105254926 0.106272705 0.10146705 -0.120363876 0.041325666 0.045253783 -0.09498439
0.049936377 -0.0676673 0.017817462 0.04695984 0.106534265 -0.066586964 -0.09977549 0.115657285
0.05660353 0.05857181 0.044824842 -0.042760234 0.0743878 -0.11013615 0.012963756 0.056504965
0.08490878 -0.062860765 -0.0844862 0.04406132 -0.09961106 -0.10482185 -0.11330304 -0.061103504
-0.023739427 -0.07449396 -0.05478617 -0.11105328 0.07683045 -0.034204036 -0.08515003 0.026026392
-0.09492527 0.086751394 0.07072061 -0.12603398 -0.09912958 -0.0844388 -0.06484235 0.014635813
-0.12851778 -0.09321431 0.055807937 -0.040939063 -0.050462194 -0.10381753 0.04929289 0.008315287
-0.049648926 -0.07797829 0.074623965 0.03401147 0.07854944 0.035525914 -0.019675152 -0.09369804
0.078839175 -0.0021904504 -0.08440675 0.10685451 0.06827975 -0.098759495 -0.06289306 -0.044810414
-0.07246411 0.058167864 -0.088191494 0.12127002 -0.052898537 0.07281108 0.008781709 -0.054973885
0.08648628 -0.09011715 -0.06751981 0.01527388 0.09767245 -0.053484473 -0.07573874 -0.07980198
-0.055612046 -0.043748636 -0.029115155 -0.07251553 0.039444193 0.00040166065 -0.08312455 -0.071837984
0.025296059 -0.0022741584 0.08687636 -0.019755362 -0.10126272 -0.08840081 -0.03415582 -0.027759282

lstm.weight_hh_l0 f4 [256, 64]
00000000: 8158 f93d 1700 7d3d 5310 c83c 2a99 e13d
00000010: 37ff fabd be48 283d ce59 8ebd 7be5 90bd
00000020: a511 ab3d 84ad d5bd 006b 6ebd 642a d3bd
00000030: 650d 903c e2eb bfbc b139 a83d 9c9e 80bc
00000040: 39da ae3d 4945 99bd 7f3d e4bc 43dc a53d
00000050: 178b e53d 7b7a 7abd 5189 b83d 7997 f23d
00000060: 6b81 e83d 3bf0 bc3d 0432 9b3d 02b7 cd3c
00000070: 863d 933d a980 e83d 68ea dbbd a4aa e53d
00000080: 2218 373c 3589 aabd 9c9e dcbd dd07 a43d
00000090: 2494 613d 6f56 b23c 9d61 443d 454e a1bc
000000a0: c215 823d 76e8 24bd 6a2d edbd 6199 79bd
000000b0: 01d1 d23d 3e0c 9f3c ceaf 0abd 2001 b8bd
000000c0: 109d d8b9 3a34 ab3c 0c7b af3d f548 02bd
000000d0: 2945 88bc b1f5 ec3d 5ca8 1dbd fbce aabd
000000e0: 34bd b2bd c917 f13d adea b53d 0f84 82bd
000000f0: 009b a33d 5094 febd 0048 87bd 3c23 82bd
00000100: 9ad1 b1bd 8489 d2bd e583 813d ba38 c9bd
00000110: 3140 6ebd 887c acbd 72e8 f43d 5da5 9a3d
00000120: 7c18 b2bd 0a4c 4dbd 8f44 383b 0b65 9f3d
00000130: 9126 6dbc fcd8 e0bd 41b7 59bc 8380 153d
00000140: 3b00 63bb 0aae 36bd adf4 8b3d e55e bd3b
00000150: e4c6 d9bd 3407 1b3d 1669 e4bd 3b10 a03d
00000160: b48a c5bd 3336 813c 8ce0 f83c 6a42 383c
00000170: 5dcc dc3d 5e9b 22bd 3256 13bd a161 8b3c
00000180: d265 bcbb 419b 843d c0f2 b3bd ac1b e23d
00000190: 542e a63d 28e7 f83d 144a 42bd 5852 73bd
000001a0: b92e d33d e6e3 d03c b4fe ae3d ac73 fb3c
000001b0: 3125 a13d 879f a03c ee56 c3bd 4df6 8bba
000001c0: d501 ddbc 4b33 be3c d8e5 d7bd 974d cb3c
000001d0: 56b3 afbd c506 6abc b972 61bd 9d9e d03d
000001e0: 3cb3 88bd 4cbd bebd f49c d5bd b840 11bb
000001f0: 6339 32bd ddce 9abd 6cb0 dc3d ebca 03be
00000200: 1109 aabd 66d9 c43d 4373 2fbd 60e0 cebc
00000210: e676 89bd 3341 de3d f2b8 afbd c34c 9cbc
00000220: 0add 393d 5031 693b 32aa 8abd 5d2a a53d
00000230: 1832 be3d 95e0 dbbd 1685 74bd cf25 a6bd
00000240: df6f f3bc a7e6 c73d e2a5 0d3e 0ac5 a4bd
00000250: 285d 08bd 081e bdbc 8383 f93d 9acd 6cbd
00000260: 7064 77bd c90f c13d 4f82 e03d 4c01 d1bd
00000270: 24a1 cd3c ba3c bebc 510a 97bd eadc c7bd
00000280: 1677 80bb 60a9 6fbb 5d78 353d f981 72bc
00000290: b56f a33d c6f0 e83d 1168 d9bc e0cd 1a3d
000002a0: 8788 ae3d edd1 bcbd fe2e ac3c d1ac 6fbd
000002b0: b00d c43c 917d d43d 211d 2a3d a52d 74bd
000002c0: b292 abbd af0e f13d 8398 ad3d d097 f5bd
000002d0: 6260 133c 15d5 84bd 5a3c 963c 4e29 c63d
000002e0: 0e9d 633d f8e2 69bd 4753 e3bd 2384 6e3d
000002f0: 9ea9 04be 91a5 273d 91af 943d 4bca f03d
00000300: 7fb9 023e 08ab 213c 5387 7bbd ea0e f8bd
00000310: db83 12bb e71a 683d b8e9 84bc a6f6 9dbd
00000320: 97d9 80bd 60b8 f53d 7ade 293d 1dcd f5bd
00000330: f3f7 193d 051e c83d 09c8 0bbc 1916 8bbc
00000340: 9f99 14bd 1af9 5f3c 32e3 02bd 4ab6 a43c
00000350: 1bb4 473c ad0e 823d c369 03bd 8abc e83d
00000360: e49e f13d cded 6cbd 4174 98bd 4336 823d
00000370: 4e44 3a3c df5c 22bb e9db d9bd c94f 963b
00000380: 7db5 4abc c9be 513d dab4 cd3d 13f7 793d
00000390: 098a 2dbd 4395 25bd 2790 58bd 0729 cfbc
000003a0: db69 663d 5538 dabd 3601 58bd 990e 863a
000003b0: 96a2 21bd 956c 6ebd 5c5d 57bc 8b25 97bd
000003c0: 845d 8c3c 3d1d 933c bc17 d93d f8d5 e83c
000003d0: ee6a 81bd 5c24 e63d e5c5 dcbc 2023 6e3d
000003e0: 0c46 17bd c573 4ebd 524d e6bd ed19 eb3d
000003f0: 2152 e8bd 7125 383d 2edb aabd 1d95 533d
0.12175084 0.061767664 0.024421846 0.11015542 -0.122557096 0.041084997 -0.06950723 -0.0707502
0.08352975 -0.10433486 -0.058207512 -0.1031082 0.017584512 -0.023427907 0.08214129 -0.01570063
0.085377164 -0.07483918 -0.027861355 0.08098652 0.1120817 -0.061151963 0.09010566 0.11845297
0.113528095 0.09225508 0.07577899 0.025111679 0.07189469 0.11352665 -0.10738069 0.11214188
0.011175187 -0.083269514 -0.1077244 0.08009312 0.05507292 0.02176973 0.047944654 -0.019690642
0.06351806 -0.040260755 -0.11580928 -0.06093729 0.102937706 0.019415017 -0.033859067 -0.089845896
-0.0004131575 0.020898927 0.08568391 -0.03180786 -0.01663454 0.115702994 -0.038490638 -0.0834026
-0.08727494 0.11772115 0.088826515 -0.063728444 0.07988548 -0.12430632 -0.0660553 -0.06354377
-0.086825565 -0.10280135 0.06323985 -0.09825273 -0.058166686 -0.0842219 0.11958398 0.07551072
-0.08696076 -0.050121345 0.0028117036 0.07782944 -0.014474527 -0.109788865 -0.01328832 0.03649951
-0.0034637589 -0.04459957 0.068337776 0.0057791346 -0.106336385 0.037848666 -0.11152856 0.07815596
-0.09645596 0.015772915 0.03038051 0.011246303 0.10781167 -0.03969895 -0.035970874 0.017014327
-0.0057494426 0.06474925 -0.08786535 0.11040434 0.08114305 0.121534646 -0.047433928 -0.0594047
0.10311646 0.025499295 0.085446745 0.030694805 0.07868422 0.019607319 -0.09538065 -0.0010678262
-0.026978413 0.023217818 -0.10541886 0.024817271 -0.085791275 -0.014283841 -0.05504105 0.10186503
-0.06674811 -0.09313449 -0.10430327 -0.002216382 -0.04351176 -0.07558987 0.10775837 -0.12870376
-0.083025105 0.09611778 -0.04283453 -0.025253475 -0.06712131 0.108522795 -0.085801974 -0.019079572
0.045376815 0.003558237 -0.067707434 0.08064721 0.092868984 -0.10736195 -0.059697233 -0.0811268
-0.02971643 0.0976079 0.1383281 -0.08045395 -0.033291966 -0.02308561 0.12183287 -0.057813264
-0.06039852 0.09426839 0.109623544 -0.102053255 0.025101252 -0.023222316 -0.073750146 -0.09758933
-0.003920446 -0.0036569461 0.04430424 -0.014801496 0.07980291 0.11374049 -0.02653888 0.037793994
0.08522134 -0.09219728 0.021018501 -0.05851442 0.023932308 0.103755124 0.041531686 -0.059613843
-0.08377589 0.11770379 0.08476355 -0.119918466 0.008995147 -0.06485955 0.018339325 0.09675847
0.0555697 -0.05710122 -0.11099868 0.058231484 -0.12955329 0.04092938 0.07260049 0.11757334
0.12766074 0.009867437 -0.061408352 -0.1211222 -0.0022356424 0.05666628 -0.016224727 -0.0771306
-0.06291502 0.11998057 0.041471936 -0.12002013 0.03758998 0.09771351 -0.008531579 -0.01697831
-0.036279317 0.01367023 -0.03195495 0.020106453 0.012188937 0.063504554 -0.032083284 0.11364086
0.11797884 -0.057843972 -0.07444049 0.06358006 0.011368824 -0.0024774594 -0.10637648 0.004587148
-0.012372372 0.051207338 0.1004426 0.061026644 -0.04236797 -0.04042555 -0.05287185 -0.025288118
0.056253295 -0.10655276 -0.05273553 0.0010227739 -0.039461695 -0.05820902 -0.013144817 -0.07380208
0.017134435 0.017958278 0.1060023 0.02842234 -0.06319223 0.11237404 -0.026949832 0.058138967
-0.036932036 -0.050403375 -0.112452164 0.11479554 -0.1134379 0.044957582 -0.083425865 0.051655877

lstm.bias_ih_l0 f4 [256]
00000000: 20c2 fd3c 2fd2 943d ccbd 5ebd 266d fabd
00000010: 7a69 6a3d 005c b6bd b95e 01be 518d 24bd
00000020: b027 02be e7f8 cdbd 9ee7 ffbd 1c61 b53d
00000030: 6842 813d 5962 b8bd d887 373c 641a c23c
00000040: 1869 143d 5026 b4bc f83d 86bd 398c dfbd
00000050: 1f07 d63d 8270 4c3d 4bb0 e03d 8dbb 003d
00000060: 0d6c 90bb 89ac adbc dd2b c83c 3b9f 4cbd
00000070: 8024 a5bd f954 c93d 38a0 2fbd 6860 eb3d
00000080: 7231 f03d 0ca8 783b 2483 153d 29aa 333d
00000090: a6de d7bc 43b6 d33d df59 0fbc 4e86 983d
000000a0: 5440 f53a 3eed 3cbd 6cbc dcbd 34c6 293b
000000b0: e179 df3b 67de a33d e457 5fbd 2efc b43d
000000c0: 3871 f73d 24f7 473d 7678 e23d 556b 09be
000000d0: d240 babd 4e6c e53c 6bd7 01be a9f3 cc3c
000000e0: e287 f83c 256e 6a3d b3ae b2bd 3e99 afbc
000000f0: 5ac0 da3d 6f24 e63d e064 cd3d e1e6 263d
00000100: c946 b4bd a83e a7bd b893 ea3d 221b 283d
00000110: a9c7 ce3d 4647 82bd 9469 dc3d 4480 6ebd
00000120: 1c62 53bd cc6c 033d 3a59 9a3c 9c59 bb3d
00000130: c753 103d f0cb d5bd ab93 16bd 9020 c5bd
00000140: ecef b73c 07a8 843d 48aa 0c3d 9c8e 653c
00000150: cf92 a43c 6470 dcbd 6399 553d e38b f63d
00000160: dfb9 853d f614 87bc e339 c7bc 6c2b 323d
00000170: 1875 77bd 2800 d03d 24c1 2ebd 10ac 39bd
00000180: eaf0 f2bb 3d36 f5bd 3a6b 0d3d bf27 c0bd
00000190: ec73 803d 64da 6abd a910 89bd 102e 1abd
000001a0: 797c 75bd fd27 abbd a07a 913d be3e ae3d
000001b0: 74ca a5bd 547f 59bc 0e3c adbc deb8 4fbd
000001c0: 262b 7f3c 0205 a1bd 1c89 c93c 359d 4f3d
000001d0: b8e7 dbbd 5d76 9ebc 667e 92bc 28ec 443c
000001e0: 02bd 49bd 866e 123c d968 7abd 3b02 f93d
000001f0: 0cea 60bc 48ef eabb 0453 373d 0441 a1bd
00000200: fcdc 213c 8c7f 6c3c 3ac9 e93c 4fa6 75bc
00000210: d78c fb3d b217 cf3d 6d05 3abd 0bfe c43d
00000220: dc24 e7bd d30e f3bd e273 b13d 3f8f d83c
00000230: f5ab b1bc 452f 91bd 62b0 aa3c 8627 00bd
00000240: c311 5f3c 1602 933d 7a45 bf3d 9100 983d
00000250: 5f9c 7abd 699b be3c 9d41 04bc f5fa 203d
00000260: 7d7f fc3d 45b0 fbbd c075 01be f6d4 d53d
00000270: 1419 bc3d 6770 583d 3e84 e6bd f7ba a73d
00000280: 2f69 c9bd ed32 403d a4dc 7c3d abc0 f13d
00000290: 2255 35bd 6d5c febd a617 e9bc 01c4 8fbd
000002a0: 5910 91bd 58d2 a63d b9ff 13bd bd95 f6ba
000002b0: 22dd c3bd e601 603d 633d ee3d 0447 623d
000002c0: 43c9 65bd 5639 c83b 30b6 18bd 4a1c 623d
000002d0: ec75 e43d de06 363d 5e7f a9bc 1bcd d93d
000002e0: 5abd c03d 371b 92bd 7a3f ebbd 0993 f4bd
000002f0: f618 c33a 5077 d9bc e6da 233d 2083 8fbd
00000300: b483 f13d b7e4 e1bd e3d1 67bc b1b0 893d
00000310: 98cc 313d 8f87 bbbc 0d74 f5bd 3515 ba3b
00000320: 912f a03d 009c de3b 4262 9cbd c2b0 c4bd
00000330: 5acb 0c3d 3813 99bc b60b 54bd 9814 99bd
00000340: 3857 673d 74e9 08bd 79c8 c4bc aed5 bb3c
00000350: c657 a2bd 3c1c f23d 6e85 0b3d f1f7 dd3c
00000360: 6618 a83d 1f96 753c f1c5 a6bd c330 9d3d
00000370: 90e8 53bb 2858 48bd a3db b13d 0ede b6bd
00000380: 2429 373d 96ee 973b d028 ff3c 4179 18bb
00000390: d2fb 49bd f01f 8ebd 35c3 473d a89b 093d
000003a0: b060 dbbb dc63 02bb 8390 f4bd 0c18 aa3d
000003b0: 63da 4fbd 298a 293d 1ca1 babd 6003 8f3d
000003c0: 674d c23c c3e6 50bd 31e1 83bd 3a15 3c3d
000003d0: b7bc e3bb b223 87bb 6a6b d23d 8a86 d9bd
000003e0: 9d16 f9bd 2cd2 cfbd 9cbd bfbc 7226 d8bd
000003f0: ac79 44bd 6453 8abd b140 b93d faec 523c
0.030976355 0.07266652 -0.054380223 -0.1222785 0.057229497 -0.08904266 -0.1263379 -0.040173832
-0.12710452 -0.1005724 -0.12495349 0.08856413 0.06311494 -0.09003133 0.011201821 0.023694225
0.036233038 -0.021990925 -0.06554788 -0.10915417 0.10450577 0.049911983 0.10971125 0.031428862
-0.004407412 -0.021200435 0.024434978 -0.04995654 -0.080636024 0.098306604 -0.042877406 0.114929974
0.11728181 0.003794196 0.03650202 0.04386345 -0.026351284 0.10337498 -0.008749454 0.074474916
0.0018711188 -0.04612469 -0.10778126 0.0025905492 0.006819949 0.08001404 -0.05452718 0.08837162
0.12082142 0.048819676 0.11058132 -0.1341985 -0.09094395 0.028005745 -0.12679832 0.02501853
0.030338231 0.05723395 -0.087247275 -0.021435376 0.106812194 0.11237418 0.10029006 0.040747527
-0.08802564 -0.081662476 0.11453956 0.0410415 0.10096676 -0.063612506 0.10762325 -0.058227792
-0.051607236 0.03208618 0.018841375 0.09147951 0.035236146 -0.104392886 -0.03676192 -0.096253514
0.02245327 0.06477361 0.03434208 0.0140110515 0.020089535 -0.10763624 0.052148234 0.120384
0.06529593 -0.016489487 -0.024319595 0.04349844 -0.060414404 0.1015628 -0.042664662 -0.045330107
-0.007413973 -0.11973236 0.034526087 -0.09382581 0.0627211 -0.05733718 -0.06692631 -0.037641585
-0.05993316 -0.083572365 0.07103467 0.08508061 -0.080952555 -0.013274986 -0.0211468 -0.050713412
0.015574252 -0.07862283 0.024601512 0.050687034 -0.10737556 -0.01934355 -0.017882537 0.012019195
-0.049252518 0.008937484 -0.061135147 0.121586286 -0.013727676 -0.007169638 0.044756904 -0.07873729
0.009879347 0.014434706 0.028538335 -0.014993264 0.122827224 0.101119414 -0.04541533 0.09618767
-0.11286327 -0.11868062 0.08664681 0.026435493 -0.02168844 -0.07089094 0.020836059 -0.031287692
0.013615075 0.07178132 0.093394235 0.07421983 -0.061184283 0.023267465 -0.008072284 0.03930183
0.12329004 -0.1228948 -0.12642574 0.1044101 0.09184471 0.05284157 -0.11255692 0.081899576
-0.09834515 0.046923567 0.061733857 0.118043266 -0.044270642 -0.124199726 -0.02845366 -0.07019807
-0.07083196 0.08145589 -0.036132548 -0.0018812936 -0.09563662 0.05468931 0.11632802 0.055243507
-0.05610014 0.0061103506 -0.037283123 0.05520276 0.11155304 0.044440143 -0.020690616 0.10634824
0.09411116 -0.07134097 -0.114867166 -0.11942107 0.0014884758 -0.02654615 0.04000368 -0.07007432
0.117926985 -0.11029952 -0.014149162 0.06723154 0.043408006 -0.022891788 -0.119850256 0.0056787976
0.078215726 0.006793499 -0.07635929 -0.096040264 0.03437362 -0.018685922 -0.05176898 -0.07474631
0.056479663 -0.033425763 -0.024021374 0.022929039 -0.07926898 0.118217915 0.034062795 0.027095767
0.08207779 0.014989405 -0.08143223 0.07675316 -0.0032334663 -0.048912197 0.086844705 -0.08929072
0.04471697 0.004636596 0.03114739 -0.0023265632 -0.04931242 -0.06939685 0.04877015 0.03359571
-0.0066948757 -0.0019895947 -0.11941626 0.08305368 -0.05074538 0.041391525 -0.091127604 0.069830656
0.023718549 -0.05100132 -0.06439436 0.04591868 -0.006949987 -0.0041241283 0.10274394 -0.106213644
-0.12162516 -0.10147509 -0.023405842 -0.10554208 -0.047967598 -0.06754187 0.09045542 0.012873882

lstm.bias_hh_l0 f4 [256]
00000000: 7310 ecbd 7f0c a9bd ac15 13bd 88f0 ca3d
00000010: 4415 cbbc 2429 9c3d a161 c53d 1381 a3bd
00000020: bc04 b8bd 63ae 0cbd e0fa 243b ea34 70bc
00000030: 1ceb a9bd afbc a53b 5ebe c43d fce6 303d
00000040: be99 b93d 088e d43d d298 653d 1fd2 af3c
00000050: d268 303d 1e94 293d a925 093c b29f f6bd
00000060: a0c4 0cbb 65c1 803d d7ac 9d3d 39a2 973d
00000070: c1d0 79bd 0f14 e13b eaba 19bc de38 f5bd
00000080: bb8c bc3c bbf8 01bd d6ea 44bc 6e84 ad3c
00000090: 960f 9abc 7798 0dbd e46f e6bb 0c82 a7bd
000000a0: fdb0 ddbd 1d11 c6bd dad7 fdbd a4db 8cbd
000000b0: 4c6f a1bd 5fd2 babd 9027 173d 29c9 55bd
000000c0: 14ca d83d 75f1 f93d c556 92bc 0989 253d
000000d0: 70bd d03d 7f91 153d fe0b c0bc 0a6a 8739
000000e0: d778 9fbd b701 03bd e399 ac3b 99ee d7bd
000000f0: 34fc 37bc 2177 f23d 42d4 fbbd 8140 763d
00000100: 4d65 c83d 3812 1bbd a2d2 8f3d 8a6f ffbd
00000110: 455a c6bd daf5 ffbb 9aea de3d 8c0d 463d
00000120: 9620 b9bd 009d 71bd c7ff 71bd f22c a3bd
00000130: 8f7e 08bd 1c2a e7bd db7f c2bc fd6b d3bc
00000140: 1a7a 383c 158c b83c b8dc 77bd 029b e3bd
00000150: 1796 823d 1430 b7bd edf2 7abd 9fe0 fd3d
00000160: a92c e9bd f2ed 11bd e9c5 2bbd 5f4c 7f3d
00000170: ac3f d63d fa47 b5bd 1a6c d9bb 52f7 e0ba
00000180: e4a2 adbd d7e7 7dbd 4db1 d3bd b2d1 893c
00000190: 9e47 003c 00dc 763d 1149 c0bd 2b95 afbd
000001a0: 0816 d6bd 8a5c 78bd 43a1 70bd bdcd 26bd
000001b0: d6eb fabd 6040 a2bd 95ae 14bc 2a4d 02bd
000001c0: 9d46 d7bd 883d edbd a4e2 56bd 1559 243d
000001d0: ed6b 043d 6b22 353d 6c7f 8bbb b880 263c
000001e0: a238 d23d a720 1cbd d51f 11ba b1a4 e6bd
000001f0: 2c8d 09be 6c0b 1d3d 13d3 cdbd d63c d63d
00000200: c3c8 95bd 8550 a63d 46a0 f3bc b958 dabd
00000210: ed06 d8bd adb0 1ebd 572a 253d f3ed a13d
00000220: dbb5 2ebd 6b19 0dbd e597 55bd f862 0e3d
00000230: bc65 5bbd 0fa0 a3bd 59c2 003e 615d ed3d
00000240: 2c03 e63d 4519 4dbd b37d 45bc 4555 a9bd
00000250: 5895 e8bd 0197 e5bd f769 f9bc ef71 4cbd
00000260: a22b 69bd 32a1 003d bab3 86bc dca6 d43d
00000270: 3c42 da3d ce2b 883d 78e1 de3d d313 9abd
00000280: 1a8b b2bc a7a2 c5bd bfb6 ea3c 21d5 663b
00000290: 56cd 483d 623c fdbc 091c c83d 1ccb 783c
000002a0: d7c9 893d 4cad 943d 1d6a 8d3d 6676 9b3d
000002b0: 5877 86bd da16 953c 6321 b03d 3486 57bd
000002c0: 12d7 cfbd 9099 ab3d c6b8 693c 27b7 79bc
000002d0: a6e6 353d 1f6f b93d 13ef 883d 2c17 47bc
000002e0: 009d b0bd 57b1 d7bd aaed 84bd 0b2d ef3d
000002f0: 2fd4 22bd 65ca 57bd 724a 433d 1c7c e5bd
00000300: f6d9 853d 11d8 a83d a95c ec3d 7063 473d
00000310: 3072 46bd 61e3 a33c 6385 d03d 8795 7cbc
00000320: 55dd dcbd ff0f 90bd eb7a aebc 8bc7 8e3b
00000330: 7605 75bd 2ee4 7e3d 9812 a63d 8531 24bd
00000340: d417 203d c0ea 083d cb10 e43c cbfa 4e3d
00000350: 0f35 50bc 3248 713d 9250 14bd c570 f13d
00000360: b8c8 bcbd 0207 fa3d 9707 763d f1f2 8cbd
00000370: e3bb a0bd b82e 3e3c 067f 09bd fe3c c03d
00000380: d49d 17bb 3464 013d f04c c7bd 6640 8ebd
00000390: 5b5f 3a3c ca5b fbbd aa55 bc3d ef72 e6ba
000003a0: 6608 173d 3930 c23d d6f8 25bd 8848 debd
000003b0: cb02 86bd f0b6 51bc 8024 69bd 5fab 88bb
000003c0: 3b6a fdbd 8161 383d 757f ab3d 6f75 cfbd
000003d0: 40b3 d53d cd3e 1c3d a641 c2bd 57a4 5b3a
000003e0: 2f64 27bc 9daa 02bd 5eb9 16bc 0f6f 42bd
000003f0: 45ec 8abd c9dd 103c 6b03 d8bd 3e65 2c3d
-0.11526575 -0.082543366 -0.03590934 0.09909159 -0.024790414 0.076250345 0.09637762 -0.07983603
-0.08985278 -0.034345996 0.0025173947 -0.014661053 -0.08296797 0.005057893 0.09606622 0.043189034
0.09062527 0.10378653 0.056053944 0.021462498 0.043068714 0.04140102 0.008370795 -0.12042178
-0.0021479502 0.06286887 0.07698982 0.074039884 -0.0609901 0.0068688462 -0.009382943 -0.11973737
0.023016324 -0.03173135 -0.01201888 0.021181311 -0.01880626 -0.03456923 -0.0070323814 -0.08179101
-0.108247735 -0.09671233 -0.12394686 -0.068778306 -0.07882556 -0.09122156 0.036902964 -0.052193794
0.10585418 0.122042574 -0.01786364 0.04041389 0.10192382 0.03651571 -0.023443218 0.00025828212
-0.0778672 -0.031984057 0.005267368 -0.10543556 -0.0112295635 0.11839128 -0.12296344 0.06012011
0.097849466 -0.03785917 0.07022597 -0.12472446 -0.09685186 -0.00781129 0.108845904 0.048352763
-0.090394184 -0.058987617 -0.05908182 -0.07967557 -0.03332382 -0.112873286 -0.023742607 -0.025808329
0.01125958 0.022527734 -0.06051323 -0.1111355 0.063762836 -0.08944717 -0.06126683 0.12396359
-0.113854714 -0.035627313 -0.04193679 0.062328693 0.10461363 -0.08851619 -0.006635201 -0.0017163551
-0.084783345 -0.061988678 -0.10336552 0.016823623 0.007829575 0.060268402 -0.09388936 -0.085733734
-0.10453421 -0.060635127 -0.05874754 -0.04072355 -0.122520134 -0.07922435 -0.009074827 -0.03181187
-0.10511515 -0.11584002 -0.052462235 0.040124018 0.03232949 0.044222277 -0.004257133 0.010162525
0.10264708 -0.038117077 -0.00055360544 -0.11261881 -0.13432759 0.03834097 -0.10050025 0.10460822
-0.07313683 0.08120827 -0.02973951 -0.10661454 -0.10548196 -0.03874271 0.04032358 0.07906713
-0.0426539 -0.03444807 -0.05214681 0.034762353 -0.05356382 -0.07989513 0.12574138 0.11590076
0.11231074 -0.050072927 -0.012053895 -0.08268217 -0.1135661 -0.11210442 -0.030446036 -0.049913343
-0.056926377 0.031403728 -0.016443122 0.103833884 0.106571645 0.0664898 0.108828485 -0.075233124
-0.021794844 -0.09650164 0.028651593 0.003522225 0.04902395 -0.030912582 0.09770972 0.015185144
0.06727951 0.07259616 0.06905005 0.07590942 -0.06565732 0.018199373 0.08600118 -0.05261822
-0.10148443 0.08378899 0.014265245 -0.015241421 0.044409417 0.09054398 0.06686225 -0.012151521
-0.086236954 -0.10531872 -0.06490643 0.11678513 -0.039753135 -0.052683253 0.04767842 -0.112053126
0.065357134 0.082443364 0.11541111 0.048678815 -0.04844874 0.020005884 0.101816915 -0.0154165095
-0.10784403 -0.07034301 -0.021298846 0.0043572835 -0.05981966 0.062229328 0.08109015 -0.040086288
0.039085224 0.033427 0.027840039 0.050532144 -0.012707963 0.05890674 -0.03620965 0.11789087
-0.092179716 0.12208368 0.060065832 -0.06882275 -0.078483365 0.011607818 -0.033568405 0.09386633
-0.0023134844 0.0315897 -0.097314715 -0.06945877 0.011375274 -0.12273367 0.091960266 -0.001758186
0.036873244 0.09481854 -0.04052051 -0.10853678 -0.065435015 -0.012799963 -0.056919575 -0.0041708197
-0.123737775 0.045014862 0.0837392 -0.101298206 0.1043458 0.03814583 -0.09485178 0.00083786756
-0.010216757 -0.03190099 -0.009199468 -0.047469195 -0.06783346 0.00884194 -0.10547527 0.04208874

Linear2.weight f4 [2, 64]
00000000: 53b9 95bd bcb1 b9bc 0de7 c4bd 1367 c6bd
00000010: 240d 0f3d 21cc 883c 0d83 103d eb78 23bc
00000020: 29fe a8bd b2b5 a23d bf43 a13d 9019 123d
00000030: c795 bdbd 48de 023d d080 833d aaa7 f13d
00000040: fcd7 84bc bdb8 963d d37e 11bd 3bd4 76bd
00000050: bfed 18bd 6214 d03d 4250 cdbd 55fa fdbc
00000060: e690 a83d 5ac4 413d 5e79 bebc 601d 84bc
00000070: 460d a63c 225b ad3d 9622 953c ea6e 8ebd
00000080: 9135 abbd 861c 29bd 292e ee3d 3007 63bc
00000090: e38f ba3d e587 bf3d 8e58 b43d 8d3a 723d
000000a0: a3df 0fbc a75d 87bd 766f 5abd 0c5d 21bd
000000b0: 84cd dabd ff6c 8ebd 7347 cbbc 0bf0 a9bd
000000c0: 09fb f53a df62 ba3d 01f8 a6bd 69ff 20bc
000000d0: e6ed 72bb 3867 1e3d 926b cabb 2b88 a83d
000000e0: adf4 433c 48b9 ffbc f5d5 b83d d2f1 91bd
000000f0: 6019 b63d 4e75 6ebd e2e9 babd ac68 093d
00000100: d37f 07be a25c c4bd 1826 083d ca2b b6bc
00000110: e912 e93b f05c 2ebd a983 a3bd 9226 49ba
00000120: e6fe dd3d ed39 e8bd 3038 183d 460a b83d
00000130: a449 ac3d b743 6dbd a1d2 1b3d 0797 debc
00000140: eeca f03d e953 d13d 8e87 9f3d 659b 6bbc
00000150: 621b 58bd ab37 0ebe f996 413a 5aad 833c
00000160: ef31 06bc 8268 97bd c195 febd 5c16 813d
00000170: 27b9 d33d 4b9f 8bbd a1e3 c13d 7e2d 29bc
00000180: 0239 673b 4870 c5bc 0cc0 80bd b780 c23c
00000190: 6f8c 62bd 8d52 9abd c769 f9bd 8439 273d
000001a0: ea08 133c 4223 a9bd 2de5 ca3d cc21 47bd
000001b0: c1ac 97bc abda dcbd 1334 bfbd c3a9 643d
000001c0: 8019 c73c bbc6 a23d 7671 c23c 11af 9cbd
000001d0: 1598 e33d 3d3a bbb9 1516 d03c 808c 8a3d
000001e0: 2b98 9a3c 616a 34bd e19d 68bd 9e4e 6bbd
000001f0: be41 eb3d 6b96 66bd 902d 78bd 710c 6cbd
-0.073107384 -0.022667758 -0.09614382 -0.096876286 0.03492464 0.016698899 0.03528123 -0.00997756
-0.08251602 0.07944812 0.0787425 0.03566891 -0.092570834 0.031950265 0.064210534 0.117995575
-0.01621627 0.07359455 -0.03552134 -0.060260992 -0.037336107 0.10160138 -0.100250736 -0.031003157
0.08230762 0.047306396 -0.023251232 -0.016127288 0.020270001 0.08464648 0.018204968 -0.06954749
-0.08359826 -0.041286968 0.11629898 -0.013856694 0.091094755 0.09352092 0.08805953 0.05913787
-0.0087813465 -0.0660966 -0.053328954 -0.039395377 -0.1068373 -0.06954383 -0.024814343 -0.08297738
0.0018766831 0.091008894 -0.08152772 -0.0098265195 -0.0037068068 0.038672656 -0.006177374 0.08229097
0.011960191 -0.031216279 0.09025184 -0.07126202 0.08891559 -0.05821734 -0.09126641 0.03354709
-0.13232355 -0.09587981 0.033239454 -0.022237677 0.00711285 -0.0425691 -0.079840966 -0.0007673289
0.10839634 -0.113391735 0.03716296 0.089863345 0.08412483 -0.057925906 0.03804267 -0.027171625
0.11757456 0.10221083 0.07789527 -0.014380311 -0.05276049 -0.13888423 0.00073848624 0.016073871
-0.008190616 -0.0739298 -0.12430907 0.06303093 0.103380494 -0.06817492 0.09467245 -0.010325788
0.0035281782 -0.024101391 -0.0628663 0.023743017 -0.05530971 -0.075352766 -0.121783786 0.040826336
0.008974293 -0.08258678 0.09906993 -0.048616216 -0.018514993 -0.10783895 -0.09336104 0.05582596
0.024304152 0.07948061 0.023735743 -0.07650579 0.11112992 -0.0003571081 0.025401155 0.067650795
0.018871387 -0.044046763 -0.05679119 -0.057448022 0.11487149 -0.056295794 -0.060590327 -0.057629053

Linear2.bias f4 [2]
00000000: ce5c 59bb c0ba 9abd
-0.0033166888 -0.07555151
